phase_3_spiral/1_layer_vae.pt (torch, 13362 bytes, 12 tensors)

encoder.0.weight f4 [32, 9]
0	0x3e92a2d4	0.28639853
1	0xbe2f485f	-0.17117451
2	0xbdb2bc1f	-0.087272875
3	0xbde8353e	-0.1133828
4	0xbe3e11dc	-0.185615
5	0x3e967f2a	0.29393893
6	0x3df986f9	0.12183947
7	0xbcde13cc	-0.02710905
8	0x3e0bdb22	0.13657811
9	0xbe85e6b2	-0.2615257
10	0x3e59b40d	0.2126009
11	0x3ea11de1	0.31468108
12	0x3e21aa04	0.15787512
13	0xbea03016	-0.31286687
14	0xbd50fb6d	-0.05102103
15	0xbe65ec6a	-0.22453466
16	0x3d981a76	0.07426922
17	0x3e919767	0.28435823
18	0x3e7b28af	0.24527238
19	0x3ea818c3	0.32831392
20	0x3e425ca9	0.1898066
21	0x3d26f5cc	0.040761754
22	0xbe85e7f9	-0.26153544
23	0xbe843d7e	-0.25828165
24	0x3e841228	0.25795102
25	0xbebb7fbe	-0.36620897
26	0x3e373116	0.17889819
27	0x3ea4db37	0.32198498
28	0xbc85edd2	-0.016348753
29	0xbc837d87	-0.016051067
30	0xbe0382f2	-0.1284292
31	0x3e5d40e8	0.21606791
32	0x3d811931	0.06303633
33	0xbdb87edb	-0.09008571
34	0x3e4ffc24	0.20311028
35	0x3d4a674b	0.049414914
36	0xbe1960a2	-0.14978269
37	0x3cd1b861	0.025600614
38	0x3d4cf4ce	0.05003815
39	0x3e855770	0.26043272
40	0xbe99cac8	-0.30037522
41	0xbe13c33e	-0.14429948
42	0x3e90d8de	0.28290457
43	0x3e5d3a7a	0.21604338
44	0xbe99ec62	-0.30063158
45	0x3cc78dc7	0.024359597
46	0x3eb47664	0.35246575
47	0xbe6c7914	-0.23093063
48	0x3e78497d	0.24246784
49	0x3df22515	0.11823479
50	0x3db7ecaf	0.08980691
51	0xbc5ab63c	-0.013349112
52	0x3d57a49c	0.052647218
53	0xbe623939	-0.22092141
54	0xbd9af5f3	-0.07566442
55	0xbe114384	-0.14185911
56	0x3e1e7030	0.15472484
57	0x3e913aa4	0.28365052
58	0xbea878bc	-0.32904613
59	0x3dff3c7a	0.12462707
60	0x3c831323	0.016000336
61	0xbdc4e3e1	-0.09613777
62	0xbe46896c	-0.1938836
63	0x3d298884	0.041389957
64	0xbe9d9f97	-0.3078582
65	0x3dba8b6b	0.09108623
66	0xbe0fd4d0	-0.14046025
67	0x3e74670e	0.23867437
68	0xbe8101d1	-0.25196698
69	0xbd32d3f1	-0.043659154
70	0x3ea1aa4a	0.31575233
71	0xbdef76ff	-0.116926186
72	0x3dc18eb2	0.09451045
73	0x3d2691a0	0.040666223
74	0x3e106945	0.14102657
75	0x3dffea1d	0.124958254
76	0x3e7b8d3a	0.24565592
77	0xbe088338	-0.13331306
78	0xbe4fdcea	-0.20299116
79	0x3d4ac557	0.049504604
80	0x3e6dbddf	0.23216961
81	0x3e1c1aac	0.1524455
82	0x3dea4445	0.11438803
83	0x3dba52bd	0.09097812
84	0x3dbdc2ea	0.092656925
85	0xbe96f303	-0.29482278
86	0x3dffb186	0.12485032
87	0xbde2254e	-0.110422716
88	0xbeaa8260	-0.33302593
89	0x3e92f927	0.28705713
90	0x3e25b39f	0.16181801
91	0xbcf44c5a	-0.029821564
92	0x3a89006e	0.0010452399
93	0xbda4d291	-0.08047975
94	0xbd0024e0	-0.031285167
95	0xbdd35b05	-0.10320095
96	0xbe64f466	-0.22358856
97	0xbe9e145c	-0.30874908
98	0x3e4400c4	0.19140917
99	0xbe928c12	-0.2862249
100	0xbe313eb9	-0.17309083
101	0xbe936e5c	-0.28795135
102	0x3e085926	0.13315257
103	0xbd2b5392	-0.041827746
104	0xbe9ad31e	-0.30239195
105	0x3d433a20	0.047662854
106	0x3e246b2c	0.16056508
107	0xbec6f5cd	-0.38859406
108	0x3e944533	0.28959045
109	0xbe44309b	-0.19159167
110	0x3d6fc931	0.05854148
111	0xbe8bdf74	-0.2731892
112	0x3e9fe829	0.31231812
113	0xbdc67e47	-0.09692054
114	0x3d4c679d	0.0499035
115	0xbdc3e3b7	-0.095649175
116	0x3d04df8f	0.032439765
117	0x3d96a89a	0.07356377
118	0x3e7af7ff	0.24508666
119	0xbdeed317	-0.11661356
120	0x3df88280	0.12134266
121	0x3ea5de30	0.32396078
122	0x3e053431	0.1300819
123	0xbe933101	-0.28748325
124	0x3bcbebff	0.0062232013
125	0x3e5004b5	0.20314296
126	0x3e623b92	0.22093037
127	0x3e4bd67a	0.19906035
128	0xbe2ee5ab	-0.17079799
129	0xbe9cc527	-0.30619165
130	0x3e990641	0.29887584
131	0xbe033263	-0.1281219
132	0xbdae3c5c	-0.085076064
133	0x3e27c8b2	0.16385153
134	0x3e5563ea	0.20838895
135	0xbe54d703	-0.20785145
136	0xbd3192f8	-0.04335305
137	0xbe82ad59	-0.2552288
138	0x3e8f18fa	0.27948743
139	0x3eb23e24	0.34813035
140	0xbd9b872e	-0.07594143
141	0xbdcd8a91	-0.10036195
142	0xbe397459	-0.1811079
143	0x3e74b072	0.23895434
144	0xbea380c3	-0.31934175
145	0x3e1d8e2e	0.15386268
146	0xbea5cbf2	-0.3238216
147	0xbd81883c	-0.06324813
148	0xbe08efd0	-0.13372731
149	0x3bb10040	0.005401641
150	0x3e4c4f32	0.19952086
151	0x3dcef944	0.101061374
152	0xbe070c80	-0.13188362
153	0x3e8a346e	0.26993126
154	0xbb780619	-0.0037845431
155	0x3e28b834	0.16476518
156	0xbbf7b444	-0.007559331
157	0xbe52d68c	-0.20589656
158	0x3e92483f	0.28570744
159	0x3d380ec5	0.04493596
160	0x3e02d753	0.12777452
161	0xbd4e398f	-0.05034786
162	0xbd9f0ec0	-0.07766485
163	0x3e84dadb	0.25948223
164	0xbe22c240	-0.15894413
165	0x3ddc4aec	0.10756478
166	0xbe44a176	-0.19202217
167	0xbd830b60	-0.06398654
168	0xbe15c328	-0.14625227
169	0xbe81060b	-0.25199923
170	0x3e719386	0.23591432
171	0xbeab88d2	-0.33502823
172	0xbde0ecdc	-0.10982677
173	0x3db0d2f1	0.08633984
174	0x3e1d9751	0.15389754
175	0xbe261218	-0.1621784
176	0x3e6a8076	0.22900566
177	0x3e79de67	0.24401246
178	0xbea09d43	-0.3136998
179	0xbbba446f	-0.0056844275
180	0xbe6e9a50	-0.23301053
181	0xbe80e7a0	-0.25176716
182	0xbd505f07	-0.050871875
183	0x3e8571fc	0.26063526
184	0xbe9a6787	-0.3015711
185	0x3e1d844f	0.15382503
186	0x3e213c0d	0.15745564
187	0xbe9dea12	-0.30842644
188	0xbe33964a	-0.175378
189	0xbe5f9d58	-0.21837366
190	0x3e61290a	0.21988311
191	0xbe1440c0	-0.14477825
192	0x3e06b93a	0.13156596
193	0x3e9c66b5	0.3054711
194	0xbe13d4ab	-0.14436595
195	0x3daffaa4	0.08592728
196	0xbe3ea8e8	-0.1861912
197	0x3ea74e35	0.32676855
198	0xbe7153bd	-0.235671
199	0x3e2764fb	0.16347115
200	0xbdd003e1	-0.1015699
201	0x3e66d81a	0.22543374
202	0x3c933d79	0.017973648
203	0x3e29ea59	0.16593303
204	0xbd56349d	-0.05229627
205	0xbe68f43a	-0.22749415
206	0xbe25df15	-0.1619838
207	0xbe8d3642	-0.27580458
208	0x3ea6acad	0.32553616
209	0xbbcb84c0	-0.0062108934
210	0xbe78a920	-0.24283266
211	0x3e6c8e52	0.23101166
212	0x3e9616b1	0.29314187
213	0xbe5ef060	-0.21771383
214	0xbe2d8efe	-0.16949078
215	0xbe08dcc3	-0.13365464
216	0xbe14e9b5	-0.14542277
217	0xbd5bd5c4	-0.05367066
218	0x3e9ff538	0.31241775
219	0x3e69fac0	0.2284956
220	0xbcc93e40	-0.024565816
221	0x3e5d2b97	0.2159866
222	0x3b9c4652	0.004769125
223	0x3bbfdefd	0.0058554397
224	0x3d9c3a1e	0.076282725
225	0x3e5530a8	0.20819342
226	0xbc5262c9	-0.012840935
227	0x3e309ab0	0.17246509
228	0x3e9e03a8	0.30862164
229	0x3dcc0c25	0.09963254
230	0x3e827ab2	0.25484234
231	0xbd405f8f	-0.04696613
232	0x3c91a12e	0.017777052
233	0xbe6a5e2d	-0.22887488
234	0x3da38229	0.079838105
235	0xbddbdffd	-0.10736082
236	0x3e9056ee	0.28191322
237	0x3e5ef485	0.21772964
238	0x3e796962	0.24356607
239	0x3e0877d6	0.13326964
240	0x3e1a4f6d	0.15069361
241	0x3e2f099f	0.17093514
242	0x3d3feafa	0.04685495
243	0xbe90753c	-0.28214443
244	0xbc92bb30	-0.017911524
245	0xbd8463f0	-0.06464374
246	0xbe880e08	-0.26573205
247	0x3ea07ef1	0.3134685
248	0x3e506776	0.20351967
249	0xbe96916a	-0.29407817
250	0xbd5f1bb8	-0.054469794
251	0xbd1c9988	-0.038232356
252	0xbd5a0ca8	-0.053234726
253	0x3e00be5a	0.12572613
254	0x3e0e0fe2	0.13873246
255	0xbe052132	-0.13000944

encoder.0.bias f4 [32]
0	0x3e614f23	0.22002845
1	0x3e561614	0.2090686
2	0xbe954181	-0.29151538
3	0x3e74313d	0.23846908
4	0xbe4bd381	-0.19904901
5	0x3e608ae7	0.21927987
6	0x3c8fdad0	0.017560393
7	0xbe2806eb	-0.16408889
8	0x3d73b978	0.05950305
9	0xbe6f19a8	-0.23349631
10	0x3d2b2c20	0.041790128
11	0x3e1de01a	0.15417519
12	0x3d8f5177	0.0699796
13	0x3e96770a	0.29387695
14	0xbe9c62a3	-0.30544004
15	0x3dd9a2f5	0.10626785
16	0xbd25f920	-0.040520787
17	0xbd2def88	-0.042464763
18	0xbe8597d6	-0.26092404
19	0x3cb0f0a0	0.021599114
20	0xbd922150	-0.0713526
21	0xbda47a3c	-0.08031127
22	0xbdf52f1f	-0.11971878
23	0x3e97ccc1	0.29648402
24	0x3e38471a	0.17995873
25	0xbe1d107d	-0.15338321
26	0xbcfb2aec	-0.030660115
27	0x3db3b3b0	0.08774507
28	0xbe5a4333	-0.21314697
29	0x3da3268e	0.07966338
30	0xbe8dbe88	-0.27684426
31	0xbdef6010	-0.11688244

encoder.2.weight f4 [16, 32]
0	0xbdaf0633	-0.08546104
1	0xbd043bff	-0.03228378
2	0xbd219b95	-0.039455015
3	0x3d97533c	0.073889226
4	0x3da7cedf	0.081937544
5	0x3dc2c287	0.095097594
6	0x3cd439a1	0.025906386
7	0x3dd5591e	0.104173884
8	0xbde3c130	-0.11120832
9	0xbde0f47b	-0.10984131
10	0x3da5327c	0.0806627
11	0x3d87f3d9	0.06638307
12	0xbd96cacb	-0.073628984
13	0xbb7eb4d8	-0.0038865115
14	0x3cc32128	0.023819521
15	0x3e11ada4	0.14226395
16	0xbdd29aae	-0.10283409
17	0x3e0e6432	0.13905409
18	0x3cea8838	0.028629407
19	0xbd275e04	-0.040861145
20	0x3d944921	0.07240511
21	0x3d36f700	0.04466915
22	0x39b53252	0.00034560502
23	0xbe13cf1a	-0.14434472
24	0xbaed989f	-0.001812715
25	0xbca93c28	-0.020658568
26	0x3db7bc81	0.08971501
27	0xbd1ba118	-0.037995428
28	0x3dbcc092	0.09216417
29	0x3d2fceab	0.042921703
30	0xbe236bd0	-0.15959096
31	0xbb951960	-0.004550144
32	0x3e1ad4e8	0.1512028
33	0x3d26475f	0.04059541
34	0x3d08433d	0.03326725
35	0xbe3e42d2	-0.18580177
36	0xbdf3623a	-0.118839696
37	0xbd78b932	-0.06072349
38	0xbe1b60a2	-0.15173581
39	0xbdc1d76a	-0.09464915
40	0xbc77d228	-0.015125789
41	0xbd80e1e8	-0.06293088
42	0x3e0aa960	0.13541174
43	0x3ded1374	0.11575976
44	0x3d145c8a	0.036221065
45	0x3dc212e1	0.09476257
46	0x3db64412	0.08899702
47	0x3ccff785	0.025386581
48	0xbcfecf20	-0.031104624
49	0xbd940578	-0.072276056
50	0x3d2af9bc	0.04174207
51	0x3d808d6d	0.06276975
52	0xbe30e564	-0.17275006
53	0x3e1d863d	0.15383239
54	0x3e1b3885	0.15158279
55	0x3d2840d4	0.04107745
56	0x3e05750f	0.13032936
57	0xbdbbfd03	-0.091791175
58	0xbe1708cd	-0.14749451
59	0x3ce56fe0	0.028007448
60	0xbe12f795	-0.14352258
61	0xbe01a425	-0.12660272
62	0x3d026b99	0.031840894
63	0x3c87168a	0.01649024
64	0xbdb2e837	-0.08735698
65	0x3b642152	0.00348099
66	0xbe17624d	-0.14783593
67	0xbe0de3d2	-0.13856438
68	0x3e0baad9	0.13639392
69	0x3ddafb9a	0.106925204
70	0xbe1e91f2	-0.15485361
71	0x3c817ea8	0.015807465
72	0x3d8770d7	0.06613319
73	0x3dae2c82	0.08504583
74	0xbd153f9f	-0.036437627
75	0xbd0b82fc	-0.034060463
76	0xbbb80923	-0.0056163236
77	0x3b83f056	0.004026453
78	0x3dc64066	0.09680252
79	0xbc5ffb56	-0.013670763
80	0x3d8b5690	0.0680362
81	0x3d90e086	0.070740744
82	0x3d67ad5c	0.056561813
83	0xbe0ddf64	-0.13854748
84	0xbd7c1052	-0.061539
85	0xbd462578	-0.048375577
86	0x3e1db816	0.15402254
87	0xbe1e4a57	-0.15458046
88	0x3e245490	0.16047883
89	0x3e14c7eb	0.14529388
90	0xbdae407a	-0.08508392
91	0x3dc77e46	0.097408816
92	0xbd1b93ac	-0.037982628
93	0xbc7a3130	-0.015270516
94	0xbdcf69f6	-0.10127632
95	0x3c849e41	0.016188743
96	0x3ce31a98	0.027722642
97	0xbe10e032	-0.14148024
98	0xbddcd541	-0.107828625
99	0xbda41684	-0.08012107
100	0xbe17662a	-0.14785066
101	0x3d758658	0.059942573
102	0xbdfec8c7	-0.12440639
103	0x3e1e3457	0.15449654
104	0xbe2ddbbb	-0.16978352
105	0xbc3e0430	-0.011597678
106	0xbdfbb298	-0.122899234
107	0xbca60f88	-0.020271078
108	0xbddd9d3e	-0.10821007
109	0x3e201c67	0.15635835
110	0x3e240367	0.16016923
111	0xbd11544c	-0.035480782
112	0x3df96272	0.1217698
113	0x3d1cdcc0	0.03829646
114	0x3bce7320	0.006300345
115	0x3dfb517a	0.122714
116	0xbe2a7689	-0.1664678
117	0xbdb1f8ae	-0.0869001
118	0x3d990e82	0.0747347
119	0xbb5ec000	-0.0033988953
120	0xbdd96920	-0.10615754
121	0xbd09d67c	-0.033651814
122	0x3df9e112	0.12201132
123	0xbdb54e75	-0.08852855
124	0xbd042220	-0.032259107
125	0xbcb83980	-0.022488356
126	0xbe1bd1e6	-0.15216789
127	0x3d14caa4	0.036326066
128	0x3d235306	0.0398741
129	0x3d9c9d49	0.07647187
130	0x3d5cf6a2	0.053946145
131	0x3e184d2a	0.14873186
132	0xbe28dd12	-0.16490582
133	0x3d101e68	0.035185248
134	0xbe3ebc78	-0.18626583
135	0xbdf00db5	-0.117213644
136	0xbd52c6cf	-0.05145913
137	0x3e053f44	0.13012415
138	0xbe14cff4	-0.14532453
139	0xbd889af8	-0.06670183
140	0xbc85814b	-0.016297003
141	0x3de27389	0.11057193
142	0xbe290a0a	-0.16507736
143	0xbb8ea0e0	-0.004352674
144	0x3df3e326	0.119085595
145	0xbcf2cc50	-0.02963844
146	0x3e072079	0.13195981
147	0xbe202314	-0.15638381
148	0xbdd03ef7	-0.101682596
149	0xbd03e5e4	-0.032201663
150	0x3dccbda2	0.09997107
151	0x3d386930	0.04502219
152	0xbd5e068e	-0.05420547
153	0xbd3fbeb0	-0.046812713
154	0x3db1c815	0.08680741
155	0xbdd19e88	-0.102353156
156	0x3e1ea75e	0.15493533
157	0xbdd050f2	-0.10171689
158	0x3dd23ab1	0.10265101
159	0xbe45ca99	-0.19315566
160	0xbd5f0839	-0.0544512
161	0x3e4dc9cb	0.20096509
162	0xbe1710ce	-0.14752504
163	0xbd2047b0	-0.039130867
164	0x3d9e1620	0.07719064
165	0xbdeb95ca	-0.11503179
166	0xbd215224	-0.039384976
167	0x3c03e5d7	0.008050404
168	0x3deec976	0.116595194
169	0x3db3f9b2	0.0878786
170	0x3e544798	0.20730436
171	0xbd4e2c56	-0.05033525
172	0x3db392cc	0.08768234
173	0xbdbcfdc7	-0.09228092
174	0xbe30aafe	-0.17252728
175	0xbdcfea90	-0.10152161
176	0xbd07d2f4	-0.033160165
177	0x3dbe0a68	0.092793286
178	0x3e253d05	0.16136558
179	0xbdecdaa3	-0.11565139
180	0x3e0b500b	0.13604753
181	0x3ccca848	0.024982587
182	0xbd5ae21a	-0.053438284
183	0x3e2c5b29	0.1683165
184	0xbe040fd7	-0.12896667
185	0xbd14b0fd	-0.0363016
186	0x3d748814	0.059700087
187	0xbe266f7b	-0.16253464
188	0xbc90743d	-0.017633552
189	0x3e34e095	0.17663796
190	0xbb994a8c	-0.004678076
191	0xbda9970e	-0.082807645
192	0xbd5fa4ac	-0.054600403
193	0x3d8e49ab	0.06947645
194	0x3a3e3bf4	0.00072568585
195	0x3d9399a0	0.07207036
196	0x3d8678c4	0.06566003
197	0xbdfb36c7	-0.12266307
198	0x3e1523b0	0.14564395
199	0x3c8ae232	0.016953561
200	0x3dbe720b	0.09299096
201	0xbd34f60c	-0.04417996
202	0x3dced492	0.10099138
203	0x3d9d5b24	0.07683399
204	0xbc4ebec6	-0.012618726
205	0x3d5135bb	0.051076632
206	0xbbd20860	-0.00640969
207	0x3e08e53a	0.13368693
208	0xbe308709	-0.17239012
209	0x3d83b0ad	0.064301826
210	0xbe21283a	-0.15738001
211	0xbd8c392b	-0.068468414
212	0x3d598b19	0.05311117
213	0x3c8b5268	0.017007068
214	0xbb9e8e3a	-0.004838732
215	0x3e1f811d	0.15576597
216	0xbe09a37d	-0.13441272
217	0x3de310b2	0.11087169
218	0x3d37c7d5	0.04486831
219	0x3d4e294c	0.050332353
220	0x3d2c9ccc	0.04214172
221	0xbddcfb76	-0.1079015
222	0x3e08832e	0.13331291
223	0xbe234dfe	-0.1594772
224	0xbde05466	-0.10953598
225	0x3deffbaf	0.11717927
226	0x3cbc7338	0.02300416
227	0x3dec29ec	0.115314335
228	0x3dfd1833	0.12358131
229	0xbe34c84c	-0.17654532
230	0xbe1bdeda	-0.1522173
231	0x3d2f6075	0.042816598
232	0xbd5b4578	-0.053533047
233	0xbe2c5db4	-0.1683262
234	0x3d31f25b	0.04344402
235	0xbdafbe96	-0.08581273
236	0x3d9f777a	0.0778646
237	0x3d0111a4	0.031510964
238	0x3d9ad42e	0.07560001
239	0xbdf01e1b	-0.11724492
240	0xbdff9ef7	-0.12481492
241	0x3dbb9dac	0.09160933
242	0xbe0ed0d8	-0.13946855
243	0x3dcab1b9	0.09897179
244	0xbe1cc489	-0.15309347
245	0xbc93ceb0	-0.018042892
246	0x3e00cd93	0.1257842
247	0x3e194b45	0.1497012
248	0xbd01d937	-0.031701293
249	0x3dcb0484	0.09912971
250	0xbd980d4e	-0.07424413
251	0xbe0840ee	-0.13306019
252	0xbd8e616e	-0.06952177
253	0x3dd0c8f6	0.1019458
254	0x3d4f8a95	0.05066927
255	0xbe0610c3	-0.13092332

encoder.2.bias f4 [16]
0	0x3e0afe9a	0.13573685
1	0x3da15fcd	0.07879601
2	0xbe355314	-0.17707473
3	0xbd5ed7b2	-0.05440492
4	0x3deda296	0.116032764
5	0x3e3851cc	0.17999953
6	0x3e25151d	0.16121335
7	0x3d4425a5	0.047887463
8	0xbd40e27c	-0.047090992
9	0x3e67a9e0	0.22623396
10	0xbdc8ea8f	-0.098103635
11	0xbe32330c	-0.17402285
12	0xbd94aad1	-0.07259143
13	0x3cb6521d	0.022255952
14	0x3df037c0	0.117293835
15	0x3d7b2eec	0.061324045

decoder.0.weight f4 [32, 16]
0	0x3e805edf	0.2507238
1	0x3e68c92d	0.22732992
2	0xbe98d42e	-0.2984938
3	0x3ed659b5	0.41865316
4	0x3cd4e000	0.025985718
5	0x3f0b4a26	0.54410017
6	0x3e96c21b	0.29444966
7	0x3f115c02	0.5678102
8	0x3edb602b	0.42846808
9	0xbe0bd462	-0.13655236
10	0xbea90f4d	-0.33019486
11	0xbe877a02	-0.26460272
12	0x3f0b33b2	0.54375756
13	0x3e9e4730	0.30913687
14	0x3f0bf1cb	0.5466582
15	0xbe7a5381	-0.24445917
16	0x3f059f25	0.5219596
17	0x3e064be5	0.13114889
18	0xbe93bc9a	-0.2885483
19	0x3e3d3626	0.18477687
20	0xbeb7b8d9	-0.35883215
21	0xbe587671	-0.21138932
22	0x3e1ae834	0.15127641
23	0xbe969a69	-0.2941468
24	0xbeb0b32d	-0.345117
25	0xbcca163f	-0.02466881
26	0xbef66d16	-0.481301
27	0x3ea77f45	0.32714286
28	0x3dd8a355	0.10578028
29	0x3f0d1397	0.55108017
30	0x3d0da4db	0.034581047
31	0x3eccb0b5	0.39978567
32	0xbea45740	-0.32097816
33	0xbef7357c	-0.48282993
34	0x3ecc4745	0.39898124
35	0xbe894d23	-0.26816663
36	0xbdf8e9f5	-0.12153999
37	0xbdb6f671	-0.08933724
38	0xbe98ae7f	-0.2982063
39	0xbed87a3a	-0.4228075
40	0x3f001cc0	0.5004387
41	0x3ea528e8	0.32257771
42	0xbe9a3028	-0.30114865
43	0x3edb0359	0.42775992
44	0xbe683d10	-0.22679543
45	0x3ef99fc0	0.48754692
46	0x3e7cc163	0.24683146
47	0x3ed42a2f	0.41438434
48	0x3b211f58	0.0024585333
49	0xbe6d637b	-0.2318248
50	0x3dd08f9d	0.10183642
51	0xbe7f5d94	-0.24938041
52	0xbdca74c0	-0.098855495
53	0xbbd820ff	-0.0065957303
54	0x3ee36735	0.44414678
55	0x3e92fd8f	0.28709075
56	0x3df63e8f	0.12023651
57	0xbe1f2131	-0.15540005
58	0xbe2bfdea	-0.1679608
59	0xbe8d6daf	-0.27622744
60	0x3cf78f15	0.030219594
61	0xbd1792c0	-0.037005186
62	0xbe36707d	-0.17816348
63	0xbe82987a	-0.25506955
64	0xbf0b0004	-0.542969
65	0xbef3e0e5	-0.47632518
66	0x3e7d15cf	0.2471535
67	0xbd8cf981	-0.068835266
68	0x3eb5a0fb	0.3547438
69	0xbebbb9b9	-0.36665133
70	0x3eef551c	0.4674462
71	0xbd2c51c2	-0.042070158
72	0xbea608ee	-0.32428688
73	0x3e54a785	0.20767029
74	0x3d212db6	0.039350234
75	0x3e2673ba	0.16255084
76	0xbd159a72	-0.036524244
77	0xbed41737	-0.41423962
78	0x3ec6c3a4	0.38821137
79	0x3e0e33f2	0.13887003
80	0xbe7b2b95	-0.24528344
81	0xbdb2b137	-0.08725207
82	0xbeda7354	-0.42666113
83	0x3e9a619d	0.30152598
84	0xbd7a8674	-0.06116338
85	0xbe979328	-0.2960446
86	0x3ef65e18	0.48118663
87	0x3eba2b56	0.36361188
88	0x3e78a6b0	0.24282336
89	0x3e089535	0.13338168
90	0x3ddf4507	0.10901838
91	0xbe8efcfd	-0.2792739
92	0x3ea24ee1	0.31700805
93	0xbc0aeffc	-0.008480068
94	0xbed7a737	-0.42119762
95	0x3e91ac56	0.28451794
96	0x3dbf6660	0.09345698
97	0xbedd126d	-0.4317812
98	0x3dfe4e2f	0.12417256
99	0xbe2373a5	-0.15962084
100	0x3e748f57	0.23882805
101	0xbe954218	-0.29151988
102	0x3e94a7bd	0.29034224
103	0xbec46740	-0.38360023
104	0xbeec99dc	-0.46211135
105	0x3e0ef3c3	0.13960175
106	0xbeff4251	-0.49855283
107	0x3ee080ea	0.43848354
108	0x3f13c013	0.57714957
109	0xbeaddce7	-0.33957598
110	0xbecd2f08	-0.40074944
111	0x3c15081b	0.009096171
112	0x3e7f933f	0.24958514
113	0xbd015203	-0.031572353
114	0xbdec6006	-0.115417525
115	0xbf0ae60d	-0.5425728
116	0xbddfb046	-0.10922293
117	0x3e7086d0	0.23488927
118	0xbebcf565	-0.3690597
119	0xbe9e68eb	-0.3093942
120	0xbefd1cef	-0.49436137
121	0x3cd74146	0.026276242
122	0xbe915442	-0.28384596
123	0xbf01329f	-0.50467867
124	0x3ec93b3e	0.3930301
125	0xbea59e7c	-0.32347476
126	0x3e5286fb	0.20559303
127	0x3e2a4859	0.16629161
128	0x3e9a5d6d	0.30149403
129	0x3e90e155	0.28296915
130	0x3ef0e7ba	0.47051793
131	0x3edd9222	0.43275553
132	0x3ecdb4d7	0.40177032
133	0xbea37d81	-0.3193169
134	0xbc1b3ec1	-0.009475411
135	0xbe446c08	-0.19181836
136	0x3c60c493	0.013718742
137	0x3dfb8f6f	0.12283217
138	0x3d8e1ad7	0.06938713
139	0x3d8b6601	0.06806565
140	0xbeda5899	-0.4264572
141	0xbea738db	-0.32660565
142	0xbda74eca	-0.08169325
143	0x3eb60497	0.35550377
144	0xbe6784bf	-0.22609232
145	0xbebc1292	-0.36732918
146	0xbeabcdc1	-0.33555415
147	0xbef94b18	-0.48690104
148	0xbea43b64	-0.3207656
149	0xbe25cf92	-0.16192463
150	0xbdf7dade	-0.121022925
151	0x3ed5fe7b	0.41795716
152	0x3e61db3c	0.22056288
153	0xbe833eb6	-0.25633782
154	0x3eef8d56	0.46787518
155	0xbea723aa	-0.32644397
156	0x3ed99f9d	0.42504588
157	0xbd9e80e0	-0.07739425
158	0xbeb3a34d	-0.35085526
159	0x3ecdc90b	0.40192446
160	0xbeddbde9	-0.43308952
161	0x3df8e99d	0.12153933
162	0x3dbfe95f	0.09370684
163	0xbea9472e	-0.33062118
164	0x3e115eb3	0.14196281
165	0xbe9e9fca	-0.30981284
166	0x3f1468f4	0.57972646
167	0x3f101572	0.5628272
168	0x3e4cd91f	0.200047
169	0x3e8112e9	0.2520974
170	0xbeb32ae3	-0.34993657
171	0x3ea8497d	0.32868567
172	0x3e3ece3e	0.18633363
173	0x3ed1c790	0.40972567
174	0x3f040b43	0.51579684
175	0x3ec3df89	0.3825648
176	0x3cbf8cb7	0.023382528
177	0x3b8e0e5a	0.004335207
178	0x3d091a6a	0.033472456
179	0xbd9c7f86	-0.07641511
180	0x3e126799	0.14297332
181	0xbd19f124	-0.037583485
182	0xbde4c227	-0.11169844
183	0x3e8fbb03	0.28072366
184	0xbe3d3261	-0.1847625
185	0xbe9b94ea	-0.3038705
186	0xbda08e0f	-0.078395955
187	0xbe43845c	-0.1909346
188	0xbe29b025	-0.165711
189	0xbe268e1f	-0.16265152
190	0xbe4937fb	-0.19650261
191	0x3e187104	0.14886862
192	0xbf0ad7b3	-0.5423538
193	0xbea535cf	-0.32267615
194	0xbd7d3128	-0.061814457
195	0x3ec9781d	0.39349452
196	0xbcb1e12d	-0.021713817
197	0x3e41b804	0.18917853
198	0x3eb0ee63	0.34556875
199	0xbed02453	-0.40652713
200	0xbe2e6f76	-0.17034706
201	0xbef2082f	-0.4727187
202	0x3ec53828	0.38519406
203	0xbe214f71	-0.1575296
204	0x3d6d0a8f	0.057871398
205	0xbdf2d808	-0.11857611
206	0x3e321997	0.17392574
207	0xbe01e9a5	-0.12686785
208	0xbe8dac1d	-0.27670375
209	0xbeea84c3	-0.45804414
210	0x3e89d190	0.26917696
211	0x3ed6c692	0.41948372
212	0xbe7a0d1f	-0.24419068
213	0x3f038e4c	0.51389
214	0xbd55f286	-0.05223324
215	0x3ed4f6cc	0.4159454
216	0x3eed77f2	0.46380574
217	0x3ca337da	0.019924093
218	0xbedb4236	-0.42823952
219	0xbe0548e1	-0.13016082
220	0xbeef661c	-0.4675759
221	0x3f0bf237	0.54666466
222	0x3f0c056a	0.5469576
223	0x3eab7119	0.33484724
224	0x3e13545e	0.14387652
225	0x3f13bdfd	0.57711774
226	0x3f1f038a	0.62114775
227	0x3e89a05d	0.2688016
228	0xbe446bec	-0.19181794
229	0x3d9e49b3	0.07728901
230	0xbed8224e	-0.42213672
231	0x3f0b1465	0.54327995
232	0xbeef65fd	-0.46757498
233	0x3e00023d	0.12500854
234	0x3ee09641	0.43864635
235	0x3bb65683	0.005564512
236	0xbdec1d89	-0.11529071
237	0xbe5c166c	-0.21492928
238	0x3e5393f5	0.2066191
239	0xbf273c18	-0.6532607
240	0x3eec5682	0.4615975
241	0x3daf93c6	0.085731074
242	0x3f0eed91	0.5583125
243	0x3eb151ec	0.34632814
244	0x3e840ecd	0.25792542
245	0x3e11f22c	0.14252537
246	0x3f12d351	0.57353693
247	0xbe856748	-0.2605536
248	0x3ecd6d82	0.4012261
249	0xbdfcd747	-0.123457484
250	0xbf01e55f	-0.5074062
251	0x3eae5cb4	0.34055102
252	0x3eeb34ca	0.45938712
253	0xbe57c295	-0.21070321
254	0xbe91b87f	-0.28461072
255	0xbefd30e7	-0.49451372

decoder.0.bias f4 [32]
0	0x3eeaaa78	0.45833182
1	0x3f1572f1	0.5837851
2	0x3ebe710e	0.3719563
3	0x3cf56e18	0.029959723
4	0x3e397558	0.1811117
5	0x3e872b36	0.26400155
6	0x3efb17e0	0.49041653
7	0x3ed5ef0f	0.4178395
8	0x3eab0936	0.33405465
9	0x3e39c488	0.18141377
10	0x3ef5693d	0.47931853
11	0x3e33ba4a	0.17551532
12	0x3f21d290	0.6321192
13	0x3f084900	0.5323639
14	0x3ea5ddc9	0.3239577
15	0x3e25fc4a	0.16209522
16	0x3f0d1120	0.55104256
17	0x3f04ec0f	0.51922697
18	0x3f022ffc	0.5085447
19	0x3eb17022	0.34655863
20	0x3e6de404	0.23231512
21	0x3ed705ad	0.41996518
22	0x3f149847	0.58044857
23	0x3e6a3454	0.22871524
24	0x3e5a0dd1	0.21294333
25	0x3e67500a	0.22589126
26	0x3e7aa019	0.24475135
27	0x3e6e2f3e	0.23260209
28	0x3f1b219e	0.6059817
29	0x3e80bf95	0.25146165
30	0x3e959bc9	0.29220417
31	0x3dbf42d7	0.093389206

decoder.2.weight f4 [9, 32]
0	0x3e88de9a	0.26732332
1	0x3e203e42	0.1564875
2	0x3e9a544f	0.30142447
3	0x3e41f120	0.18939638
4	0x3e2dbec7	0.16967307
5	0x3ec1826c	0.37794816
6	0x3e8959ae	0.26826233
7	0x3eb17375	0.346584
8	0x3e5dc304	0.21656424
9	0x3de58d1f	0.11208557
10	0x3e83920f	0.2569737
11	0x3d299630	0.041402996
12	0x3d86b388	0.065772116
13	0x3eb9ba31	0.36274865
14	0x3e89ab5a	0.26888543
15	0x3ecb8517	0.39749977
16	0x3e991f31	0.2990661
17	0x3ec1ebe1	0.37875274
18	0x3e21f51f	0.15816163
19	0x3e628a0b	0.22122972
20	0x3d9cad0c	0.076501936
21	0x3e6bcc85	0.23027237
22	0x3e19e257	0.15027748
23	0x3ea18d7a	0.3155325
24	0x3eadba1e	0.3393106
25	0x3d4f703d	0.05064415
26	0x3ecb9475	0.397617
27	0x3e892d10	0.26792192
28	0x3eaccec6	0.33751506
29	0x3ea9d91a	0.33173448
30	0x3ea457c9	0.32098225
31	0x3d9db336	0.077001974
32	0xbe850ddd	-0.2598714
33	0xbe29a4c6	-0.16566762
34	0xbe17ea7b	-0.14835541
35	0xbd1c8ef7	-0.03822228
36	0xbe878260	-0.26466656
37	0xbec3d302	-0.38246924
38	0xbe825fb9	-0.25463656
39	0xbea62a63	-0.32454214
40	0xbeac73bb	-0.33682045
41	0xbecd2602	-0.4006806
42	0xbec2960b	-0.380051
43	0x3ccf69a8	0.025318936
44	0xbea3f10d	-0.32019845
45	0xbee6cfc6	-0.45080394
46	0xbec6327c	-0.38710392
47	0xbeb2acc0	-0.34897423
48	0xbeae3b20	-0.34029484
49	0xbdc11ad9	-0.09428949
50	0xbebd3a71	-0.3695865
51	0xbe0f4b02	-0.13993457
52	0xbeb20517	-0.34769508
53	0xbe630387	-0.22169314
54	0xbeafb9fd	-0.34321585
55	0xbe406d8a	-0.18791786
56	0xbe28baff	-0.16477583
57	0xbe860d17	-0.26181862
58	0xbea9c78b	-0.33160052
59	0xbebfa4c9	-0.3743041
60	0xbed66700	-0.41875458
61	0xbea27b5e	-0.31734747
62	0xbe2be069	-0.16784824
63	0xbe5550ec	-0.2083165
64	0x3e27cce4	0.16386753
65	0x3e274f87	0.16338931
66	0x3e81f374	0.25381052
67	0x3e38a205	0.18030556
68	0x3e034e27	0.12822782
69	0x3e7af863	0.24508815
70	0x3e63ac95	0.22233804
71	0x3ea6ebfc	0.32601917
72	0x3cc5bc03	0.024137503
73	0x3e884c8b	0.26620898
74	0x3e978eee	0.29601234
75	0x3e3209ee	0.173866
76	0x3e25d68e	0.16195127
77	0x3e3b3229	0.18280853
78	0x3ecfde39	0.4059923
79	0x3ec38994	0.381909
80	0x3ea48c34	0.32138216
81	0x3e394a55	0.18094762
82	0x3e878fb2	0.26476818
83	0x3ed2f619	0.41203383
84	0x3e0b3e31	0.13597943
85	0x3e3b2b80	0.18278313
86	0x3e2b45b7	0.16725813
87	0x3e928420	0.28616428
88	0x3e95ff42	0.2929631
89	0x3ec22384	0.3791772
90	0x3ebe26cd	0.37138978
91	0x3e2c1129	0.16803421
92	0x3e3a7a5d	0.1821074
93	0x3d8030ab	0.06259283
94	0x3e865003	0.2623292
95	0x3e2b9aca	0.16758266
96	0x3e76f592	0.24117115
97	0x3ebc60e0	0.3679266
98	0x3dce8865	0.10084609
99	0x3cbff4c3	0.023432141
100	0x3ead322c	0.3382734
101	0x3e9e2fcd	0.30895844
102	0x3e872a6f	0.26399562
103	0x3e65bcef	0.22435354
104	0x3e737991	0.23776843
105	0x3ec5a7a3	0.3860446
106	0x3e78f6d7	0.24312912
107	0x3db5488f	0.0885173
108	0x3eab0d51	0.33408597
109	0x3ea1293a	0.31476766
110	0x3ef98dc0	0.4874096
111	0x3ed228ed	0.4104685
112	0x3e9d7ba2	0.30758387
113	0x3ebfc29d	0.37453166
114	0x3e4dd89f	0.20102166
115	0x3e59c8e9	0.21268047
116	0x3eb3f83e	0.3515033
117	0x3ebc90a1	0.36829093
118	0x3d6b4d23	0.05744661
119	0x3e70c75f	0.23513554
120	0x3e3ac6af	0.18239854
121	0x3debe88e	0.11518966
122	0x3e95da97	0.29268333
123	0x3e340ca3	0.17582946
124	0x3e3cec51	0.18449523
125	0x3d721f57	0.05911192
126	0x3e878b3d	0.26473418
127	0x3e85bfc4	0.26122868
128	0xbeea45f7	-0.45756504
129	0xbebdc3a1	-0.37063316
130	0xbec2f29f	-0.3807573
131	0xbdff2203	-0.12457659
132	0xbecad79c	-0.39617622
133	0xbe98eae2	-0.298667
134	0xbdca8c77	-0.09890073
135	0xbe72a0d8	-0.2369417
136	0xbea87015	-0.32898012
137	0xbeda9db3	-0.4269844
138	0xbe0246ef	-0.12722372
139	0xbe02218b	-0.12708108
140	0xbded4dcc	-0.11587104
141	0xbe354a1b	-0.1770405
142	0xbe7e36e7	-0.24825631
143	0xbe8c336f	-0.2738299
144	0xbe60f8c6	-0.219699
145	0xbe9a5c6e	-0.30148643
146	0xbeb04d8f	-0.34434173
147	0xbe5ee99d	-0.21768804
148	0xbe56f477	-0.20991693
149	0xbea63543	-0.3246251
150	0xbe271c6a	-0.16319433
151	0xbeace4df	-0.33768365
152	0xbecbbe94	-0.39793837
153	0xbea60b05	-0.32430282
154	0xbe9c0831	-0.30475
155	0xbea4f7b9	-0.32220247
156	0xbe970c2d	-0.29501477
157	0xbe2514d2	-0.16121224
158	0xbe9b56e7	-0.3033974
159	0xbe4905e0	-0.19631147
160	0xbeadeca9	-0.3396962
161	0xbe748bbe	-0.23881432
162	0xbec1180c	-0.3771366
163	0xbe440e5c	-0.19146103
164	0xbe84714f	-0.25867698
165	0xbe062135	-0.13098605
166	0xbe87fe77	-0.2656133
167	0xbe4b0aad	-0.19828291
168	0xbeb43c7a	-0.3520239
169	0xbea754dc	-0.3268193
170	0xbe271cdd	-0.16319604
171	0xbdeeb6d9	-0.11655969
172	0xbe30279d	-0.17202611
173	0xbe2aec1c	-0.16691631
174	0xbe5d3c35	-0.21604998
175	0xbeaba646	-0.33525294
176	0xbe3c338f	-0.18379043
177	0xbeb1e7be	-0.34747118
178	0xbe309c76	-0.17247185
179	0xbebdcd78	-0.37070823
180	0xbe7068ce	-0.2347748
181	0xbeac432b	-0.33644995
182	0xbec2b08c	-0.3802532
183	0xbe2bf9fe	-0.16794583
184	0xbe87520f	-0.26429793
185	0xbea90985	-0.33015075
186	0xbe0a478d	-0.13503857
187	0xbe679a4c	-0.22617453
188	0xbe010632	-0.1260002
189	0xbea3ada8	-0.31968427
190	0xbe17433f	-0.14771746
191	0xbe98ae5e	-0.29820532
192	0xbe5c1dac	-0.21495694
193	0xbea0d7f7	-0.31414768
194	0xbdb25003	-0.08706667
195	0xbe93ab61	-0.2884169
196	0xbe852d6d	-0.2601122
197	0xbe89e360	-0.26931286
198	0xbdeaff6d	-0.114745
199	0xbea33ff2	-0.31884724
200	0xbde7ad55	-0.11312357
201	0xbe7fc42f	-0.24977182
202	0xbe435e0c	-0.19078845
203	0x3d486da3	0.048932683
204	0xbdaf2c29	-0.08553345
205	0xbe92ae28	-0.28648496
206	0xbec3c7f9	-0.38238505
207	0xbd3c6b26	-0.046000622
208	0xbd04dc66	-0.03243675
209	0xbe9491ff	-0.29017636
210	0xbe149c09	-0.14512648
211	0xbe657d7f	-0.22411154
212	0xbbda9867	-0.006671
213	0xbe811005	-0.25207534
214	0xbe6af724	-0.22945839
215	0xbe42dcee	-0.1902959
216	0xbe2fd546	-0.17171201
217	0xbe6d533f	-0.23176287
218	0xbd5f86fb	-0.054572087
219	0xbe839e36	-0.25706643
220	0xbe95d9de	-0.29267782
221	0xbe189650	-0.1490109
222	0xbe945ef5	-0.28978696
223	0xbacedf35	-0.0015783074
224	0xbd54dedc	-0.051970348
225	0xbdfe1387	-0.12406068
226	0xbe8be9cb	-0.27326807
227	0xbe74a16d	-0.23889704
228	0xbe9980f0	-0.29981184
229	0xbddb85d8	-0.10718888
230	0xbe39b7b7	-0.18136488
231	0xbe5beba5	-0.2147661
232	0xbd237b23	-0.039912354
233	0xbe00279e	-0.12515113
234	0xbe8ab3e5	-0.27090374
235	0xbcb0440d	-0.021516824
236	0xbe8c096b	-0.27350935
237	0xbdae8223	-0.08520915
238	0xbe99fba3	-0.30074796
239	0xbcac6430	-0.021043867
240	0xbb96609a	-0.0045891525
241	0xbe950829	-0.29107788
242	0xbda6b596	-0.081401035
243	0xbead0ae5	-0.33797374
244	0x3b4e5e0e	0.0031489166
245	0xbcf3c5c3	-0.029757386
246	0xbe71665f	-0.23574208
247	0xbd97665d	-0.07392571
248	0xbe097186	-0.13422212
249	0xbe5ca13a	-0.21545878
250	0xbe0d2cd1	-0.13786627
251	0xbd66dda7	-0.056363728
252	0xbe6ae6ea	-0.22939649
253	0xbe91b96c	-0.28461778
254	0xbbf28b1a	-0.007401836
255	0xbe362ef5	-0.1779135

decoder.2.bias f4 [9]
0	0x3ea82e4b	0.3284782
1	0xbdaceca8	-0.08443576
2	0x3eb5b44c	0.35489118
3	0x3db53aad	0.08849082
4	0xbd90e2f7	-0.0707454
5	0xbdcd1fd2	-0.10015835
6	0xbe92a6b4	-0.2864281
7	0xbe72ca5c	-0.23710006
8	0xbe47f6a7	-0.19527684

mu.weight f4 [16, 16]
0	0xbcff325d	-0.031151945
1	0xbe738ea6	-0.23784885
2	0xbc889a6d	-0.016675198
3	0x3e7df7ce	0.24801561
4	0xbe571af1	-0.21006371
5	0x3c4302eb	0.011902551
6	0xbe3246e0	-0.17409849
7	0xbe113e92	-0.14184025
8	0x3e4173ea	0.18891874
9	0xbe0e4c25	-0.13896234
10	0x3e0d8808	0.13821423
11	0xbcc17bd7	-0.023618622
12	0x3e58f2d8	0.21186388
13	0x3dfac0dc	0.12243816
14	0xbe33c091	-0.17553927
15	0xbe27690f	-0.1634867
16	0x3e36eedf	0.1786456
17	0x3da0a6c6	0.078443095
18	0x3c097ca2	0.008391531
19	0xbe756256	-0.23963293
20	0x3d724b28	0.059153706
21	0x3e44d0a0	0.19220209
22	0x3e0e82e4	0.13917118
23	0x3d33a5af	0.04385918
24	0xbd1d5e30	-0.038419902
25	0xbdcc571e	-0.09977554
26	0x3c8ed981	0.017437698
27	0xbc43da5a	-0.011953915
28	0xbe36ddf8	-0.17858112
29	0x3e21f7b3	0.15817146
30	0xbdf63692	-0.12022127
31	0x3dcae949	0.09907777
32	0x3c8f2cde	0.017477449
33	0xbda4e986	-0.080523536
34	0x3d89422d	0.06702075
35	0xbe345a36	-0.17612538
36	0xbe106ac6	-0.14103231
37	0xbe60df6b	-0.21960227
38	0xbdb6c08d	-0.08923445
39	0x3d6e3df1	0.05816454
40	0x3e3b11ca	0.18268505
41	0xbd93c411	-0.07215131
42	0xbe6a9f57	-0.22912346
43	0x3da95dcf	0.08269846
44	0xbdca9f08	-0.09893614
45	0x3e55e3c6	0.2088767
46	0x3e1a1aaa	0.15049234
47	0xbd92b960	-0.07164264
48	0x3df5f8ad	0.12010322
49	0x3e4a91ed	0.19782229
50	0x3e106fe2	0.1410518
51	0x3e2c4b0c	0.16825503
52	0x3e6b21b3	0.22962074
53	0xbd20991e	-0.039208524
54	0xbdfe6ba9	-0.12422878
55	0x3e6559ae	0.22397491
56	0x3e087c92	0.1332877
57	0x3d450594	0.048101023
58	0x3d49c213	0.04925735
59	0x3d8f5626	0.069988534
60	0x3e42816c	0.18994683
61	0x3d370ed0	0.04469186
62	0xbe0d5a42	-0.13803962
63	0xbb8b1c6f	-0.004245333
64	0x3e11e1b2	0.14246252
65	0x3e0c6c0d	0.13713093
66	0x3cfe30d5	0.031029144
67	0xbcee7290	-0.029107362
68	0x3e51efe9	0.20501675
69	0xbced599a	-0.02897339
70	0xbdd2afc9	-0.102874346
71	0x3e0820a8	0.13293707
72	0xbe272c1c	-0.1632542
73	0xbe775bef	-0.24156164
74	0x3d0d34b4	0.03447409
75	0x3df2cfac	0.118560165
76	0xbe1a59ce	-0.1507332
77	0x3e15e43b	0.14637844
78	0x3d8aad06	0.06771283
79	0xbe75a679	-0.23989286
80	0x3dcc3769	0.09971506
81	0xbc459d92	-0.0120614935
82	0x3e509927	0.20370923
83	0xbe74a0e0	-0.23889494
84	0xbddf1ef7	-0.10894578
85	0xbe4508d1	-0.19241644
86	0x3e2dc7f8	0.16970813
87	0x3d1d9ee8	0.038481623
88	0xbda57fd4	-0.08081022
89	0x3d19065e	0.037359588
90	0x3e0ae81d	0.13565107
91	0x3dca7493	0.09885516
92	0xbcaa4f00	-0.020789623
93	0xbe200047	-0.15625106
94	0x3caaf31e	0.02086788
95	0xbe097658	-0.13424051
96	0x3de8a49e	0.11359523
97	0xbe6bed27	-0.23039685
98	0x3c271eb8	0.010200195
99	0x3e44093a	0.19144145
100	0xbe432ddc	-0.19060463
101	0xbdc1b708	-0.094587386
102	0xbd2c44b6	-0.042057715
103	0xbdbcb6b8	-0.09214538
104	0x3e613148	0.21991456
105	0x3c2b9759	0.010473096
106	0xbe3a1f6d	-0.1817605
107	0xbdf25795	-0.11833111
108	0x3dbff174	0.093722254
109	0xbe04113e	-0.12897202
110	0xbd109b4f	-0.035304364
111	0x3c5e77c9	0.013578364
112	0xbe222fd1	-0.15838553
113	0x3d55328a	0.05205015
114	0x3e491297	0.19635998
115	0x3e3200b4	0.1738308
116	0x3e3d2fd7	0.1847528
117	0xbd87759d	-0.0661423
118	0x3da417f3	0.080123805
119	0xbe2115f7	-0.15731035
120	0xbe4de7aa	-0.20107904
121	0x3e1927db	0.1495661
122	0xbe5e7008	-0.21722424
123	0x3e38cd15	0.18046983
124	0xbe3765ea	-0.17909971
125	0xbe65e678	-0.22451198
126	0xbdf8e219	-0.121525
127	0xbddd93a2	-0.10819174
128	0xbe62407d	-0.22094913
129	0x3e06041d	0.13087507
130	0xbd6cc032	-0.05780048
131	0xbda0c1dc	-0.07849476
132	0xbe6eb7a1	-0.23312236
133	0xbe215600	-0.15755463
134	0xbdff6dfa	-0.12472148
135	0xbe602e91	-0.21892764
136	0x3e19c44a	0.15016285
137	0x3e1a4454	0.15065128
138	0xbd4a5ae9	-0.049403105
139	0x3e3c8cb7	0.18413053
140	0xbe25cb88	-0.16190922
141	0x3e24af09	0.16082396
142	0xbd0440b8	-0.032288283
143	0x3e3120f3	0.17297725
144	0xbe703e33	-0.23461227
145	0xbdb36cae	-0.087609634
146	0x3daf4fb5	0.08560125
147	0xbdfba1b4	-0.12286702
148	0x3e6e3145	0.23260982
149	0x3e6fdd33	0.23424225
150	0x3cf2a9cc	0.029621981
151	0x3dbe403d	0.09289596
152	0xbdbae340	-0.09125376
153	0x3da8809c	0.08227655
154	0x3d72be2e	0.0592634
155	0xbe2645f8	-0.16237628
156	0xbd98fe5c	-0.0747039
157	0x3d250148	0.040284425
158	0x3e76a5f9	0.24086751
159	0xbe49d801	-0.19711305
160	0x3cfd58c2	0.030926112
161	0x3e26158d	0.16219158
162	0xbe04bb4e	-0.12962076
163	0x3d7d4860	0.0618366
164	0x3e7164ee	0.23573658
165	0x3de23478	0.11045164
166	0xbe7055ce	-0.23470232
167	0xbe305330	-0.17219234
168	0x3e60834e	0.21925089
169	0xbdbe803b	-0.09301802
170	0xbd352065	-0.044220347
171	0x3d11ad0e	0.03556543
172	0x3e175812	0.1477969
173	0xbe483482	-0.1955128
174	0x3d46b860	0.048515677
175	0xbd0e678e	-0.034766726
176	0x3e1e0d50	0.15434766
177	0xbdc4e1a0	-0.09613347
178	0x3dee4d26	0.11635809
179	0xbe60d608	-0.21956646
180	0x3df4c848	0.11952263
181	0xbdd109b0	-0.10206926
182	0xbda3eb40	-0.08003855
183	0x3c879b61	0.016553583
184	0x3d578408	0.05261615
185	0xbdb332ef	-0.08749949
186	0xbdc42dac	-0.09579024
187	0x3e56ccba	0.20976534
188	0xbd4d8d50	-0.050183594
189	0x3d9f79b1	0.07786883
190	0x3ca80478	0.020509943
191	0x3e3a7dc2	0.18212035
192	0xbd9a1456	-0.0752341
193	0xbde48e57	-0.11159962
194	0x3d83a1d3	0.0642735
195	0xbe566a26	-0.2093893
196	0x3d881c1c	0.066459864
197	0xbe9e5a45	-0.30928245
198	0x3cfd7bff	0.030942915
199	0xbe2bdba7	-0.1678301
200	0xbe7489e4	-0.23880726
201	0x3c7215fc	0.014775749
202	0x3da7b1f2	0.08188237
203	0xbe3e232a	-0.18568102
204	0x3dc80de4	0.097682744
205	0x3e0b4ce1	0.13603546
206	0xb97c14ff	-0.00024040414
207	0x3db1520f	0.086582296
208	0xbdb0d39a	-0.0863411
209	0xbe403a3e	-0.18772218
210	0xbd5f1bf7	-0.05447003
211	0xbc0a5480	-0.008442998
212	0xbe13624e	-0.14392969
213	0xbe453317	-0.1925777
214	0xbe209a13	-0.15683775
215	0xbda40634	-0.08008996
216	0xbda6aea0	-0.08138776
217	0x3d863cce	0.06554566
218	0xbe29a9da	-0.165687
219	0xbdfe6402	-0.12421419
220	0xbe229476	-0.15876946
221	0x3dda82d9	0.106694885
222	0x3dfb1bbc	0.12261149
223	0x3d8432d4	0.06455007
224	0x3c2a7661	0.0104042
225	0x3d145f72	0.036223836
226	0xbe4d3dab	-0.20043056
227	0xbd904adc	-0.07045528
228	0xbd990206	-0.07471089
229	0x3e703175	0.23456366
230	0xbcca67ed	-0.024707759
231	0x3e024dbe	0.12724969
232	0x3e100a38	0.14066398
233	0x3e8de3fd	0.27713004
234	0xbdb88b09	-0.09010894
235	0xbe369206	-0.17829141
236	0xbe0464d2	-0.12929085
237	0xbdfdd21e	-0.12393592
238	0xbe0c4b9d	-0.13700719
239	0xbdff225d	-0.12457726
240	0xbe916410	-0.28396654
241	0x3c98752f	0.018610565
242	0x3e5e60fa	0.21716681
243	0x3da5d210	0.08096707
244	0xbe2fed7d	-0.17180438
245	0x3c8e9922	0.017407004
246	0xbe45b612	-0.19307736
247	0xbd91198d	-0.070849515
248	0x3d17e5d8	0.03708443
249	0x3dd2d2f6	0.10294144
250	0x3e27704c	0.16351432
251	0xbe6b76c1	-0.2299452
252	0x3e74bc14	0.23899871
253	0x3dec5291	0.11539186
254	0x3d85e050	0.06536925
255	0x3e44b8ba	0.19211093

mu.bias f4 [16]
0	0x3de1b045	0.11019949
1	0xbdfe9ead	-0.12432609
2	0x3da2da44	0.07951787
3	0x3c1a7823	0.009428057
4	0x3ddfee69	0.10934145
5	0xbc90c89a	-0.01767378
6	0x3d30f0f2	0.043198533
7	0xbc3aff1e	-0.011413364
8	0x3ce49584	0.027903326
9	0xbd9816d6	-0.074262306
10	0x3e1287ec	0.14309663
11	0x3d759768	0.059958845
12	0x3d3de398	0.04635963
13	0x3d9b1e38	0.07574123
14	0xbe1ec0f4	-0.15503293
15	0x3d5398e7	0.05165949

logvar.weight f4 [16, 16]
0	0x3e46c0ad	0.19409437
1	0xbe0437d6	-0.12911925
2	0xbda85e17	-0.08221071
3	0x3da994d8	0.08280343
4	0x3dc734a4	0.09726837
5	0xbe0de1a7	-0.13855611
6	0xbca4a67a	-0.020098913
7	0xbc3266d4	-0.010888774
8	0x3d474138	0.04864618
9	0x3e77a82a	0.24185243
10	0x3e6c90a4	0.23102051
11	0xbdf2483b	-0.11830183
12	0xbe2e687a	-0.17032042
13	0x3e7c1e6c	0.2462098
14	0x3d9e062c	0.07716021
15	0xbc449d43	-0.012000385
16	0x3e20b342	0.15693381
17	0x3c6b0559	0.014344537
18	0x3df4da57	0.119557075
19	0xbe4182ce	-0.18897554
20	0x3df8372d	0.12119899
21	0x3c4430a9	0.011974492
22	0x3e1fb8c1	0.15597822
23	0x3ddb6513	0.10712638
24	0x3d1160a0	0.03549254
25	0x3d9214a5	0.07132844
26	0x3e455313	0.19269972
27	0x3e619010	0.22027612
28	0x3e516f30	0.20452571
29	0x3dde4474	0.108529
30	0xbe53b987	-0.20676242
31	0xbe37b191	-0.1793883
32	0xbdef7a3c	-0.11693236
33	0x3e684f15	0.22686417
34	0xbe37b1c2	-0.17938903
35	0x3c4472c0	0.011990249
36	0xbdad3791	-0.08457864
37	0xbe257c55	-0.1616071
38	0xbd1bcbcc	-0.038036153
39	0x3aef6eab	0.0018267235
40	0x3e6d9856	0.23202643
41	0x3e190aed	0.14945574
42	0x3d4c9070	0.049942434
43	0x3e353ece	0.1769974
44	0xbd84c420	-0.064827204
45	0xbc737ec7	-0.014861769
46	0xbdfe15a7	-0.124064736
47	0x3e36b799	0.17843474
48	0xbe67b347	-0.22626983
49	0xbdda913b	-0.10672232
50	0xbe09c634	-0.13454515
51	0xbd84fe40	-0.06493807
52	0xbe392442	-0.18080238
53	0xbd62eae2	-0.055399783
54	0xbe1c0934	-0.15237886
55	0x3d5d3330	0.054003894
56	0x3d8ea814	0.06965652
57	0x3e051b48	0.12998688
58	0xbe815c8b	-0.25265917
59	0x3d458fe2	0.04823292
60	0x3de8b820	0.11363244
61	0xbdceacc5	-0.10091547
62	0xbe7c287e	-0.24624822
63	0x3d8012c2	0.06253578
64	0xbe1e0623	-0.15432028
65	0xbe6a9d10	-0.22911477
66	0xbe46ab1c	-0.1940121
67	0x3b01e380	0.0019819438
68	0xbe486a4c	-0.19571799
69	0x3da7a6fc	0.081861466
70	0xbd596609	-0.053075824
71	0xbd1590d9	-0.03651509
72	0x3e6a8a80	0.22904396
73	0x3e37412f	0.1789596
74	0x3e3f22f9	0.18665685
75	0xbe279853	-0.16366701
76	0x3d8dda50	0.069264054
77	0x3e85549e	0.2604112
78	0xbd9baf8b	-0.076018415
79	0x3e1edc35	0.1551369
80	0x3ddad738	0.10685581
81	0xbe0c6815	-0.13711579
82	0x3d87cc4b	0.06630763
83	0x3e6e9980	0.23300743
84	0x3e2ed605	0.1707383
85	0x3e19cd39	0.15019692
86	0x3dfea18b	0.124331556
87	0xbe2bf9c9	-0.16794504
88	0x3c981710	0.018565685
89	0xbe434eff	-0.19073103
90	0x3d4d6c67	0.05015221
91	0xbe12f402	-0.14350894
92	0x3e73975a	0.23788205
93	0x3d95e881	0.07319737
94	0xbe42cdb9	-0.1902379
95	0x3e75109a	0.23932114
96	0xbdc3ee33	-0.09566917
97	0xbe0c92b8	-0.13727844
98	0xbdb1dc7c	-0.08684632
99	0xbd2135d0	-0.03935796
100	0x3dd7937f	0.105261795
101	0x3e25c87e	0.16189763
102	0x3e24c2c0	0.16089916
103	0x3c9aa582	0.018877748
104	0xbe11bd0c	-0.14232272
105	0xbd1e7fd3	-0.03869612
106	0xbbd0929f	-0.006365135
107	0x3dfba111	0.1228658
108	0x3e3ec422	0.18629506
109	0xbdb5b911	-0.08873189
110	0xbd14f0e3	-0.03636254
111	0xbde1f231	-0.110325225
112	0xbe281f8d	-0.16418286
113	0xbde68c42	-0.11257221
114	0xbb86d970	-0.004115276
115	0xbd992ce4	-0.07479265
116	0xbe2b0854	-0.16702396
117	0x3e40b4e1	0.18819
118	0x3e284b9c	0.16435093
119	0xbe7615a3	-0.24031691
120	0xbd91005c	-0.07080147
121	0x3d85abde	0.06526922
122	0xbd15a656	-0.036535583
123	0xbd91133c	-0.07083747
124	0x3d9023d4	0.07038084
125	0x3d9a4894	0.075333744
126	0xbe5070b8	-0.20355499
127	0x3e41b884	0.18918043
128	0x3d33f74a	0.043937005
129	0x3de719ff	0.11284255
130	0x3e7979d7	0.24362884
131	0xbdca2e1c	-0.09872076
132	0x3e58560d	0.21126576
133	0x3e076b8b	0.13224618
134	0x3e9a9ab9	0.3019617
135	0xbdd162b1	-0.10223902
136	0x3dd1a1f4	0.10235968
137	0xbd8c6445	-0.068550624
138	0x3e08fdc7	0.13378058
139	0x3e309b8b	0.17246835
140	0x3e1b8228	0.1518637
141	0xbe260950	-0.1621449
142	0x3e121683	0.142664
143	0xbe0ce9de	-0.13761088
144	0xbd6727a2	-0.05643428
145	0x3e490e10	0.1963427
146	0x3e283f15	0.16430314
147	0xbc88ac50	-0.016683728
148	0xba1132c4	-0.00055388757
149	0xbe0a1fd4	-0.13488704
150	0x3dd1ffbf	0.10253858
151	0x3e379b6c	0.17930382
152	0x3d6854b0	0.05672139
153	0xbdbbd1ef	-0.09170901
154	0xbe2a9268	-0.16657412
155	0x3e2a73e9	0.16645779
156	0xbd32ab70	-0.043620527
157	0x3e62893d	0.22122665
158	0x3e5adfd3	0.21374445
159	0xbdf07944	-0.117418796
160	0xbc6c091c	-0.014406469
161	0xbe6e3fd3	-0.23266535
162	0x3e131a33	0.14365463
163	0x3d15e450	0.03659469
164	0x3c2b9330	0.010472104
165	0x3d2e0259	0.042482708
166	0x3de4c774	0.11170855
167	0xbd95c7f8	-0.07313532
168	0xbca6b460	-0.020349681
169	0x3d66ccee	0.05634778
170	0x3e635d70	0.22203612
171	0xbc4286d4	-0.011872966
172	0xbba5fe40	-0.0050657094
173	0xbe317236	-0.17328724
174	0xbd5a83f6	-0.053348504
175	0xbccd5e1d	-0.02506929
176	0x3e598ed4	0.21245891
177	0x3e32ff7d	0.17480274
178	0x3d5a233c	0.05325626
179	0x3e257c24	0.16160637
180	0x3e5871d3	0.2113717
181	0x3e664bbe	0.22489831
182	0x3d8e0242	0.069340244
183	0x3cacbfd3	0.021087563
184	0xbe2866f4	-0.16445524
185	0x3d166b9e	0.036723725
186	0x3dc28fff	0.09500121
187	0x3e0f203f	0.13977145
188	0x3db9c880	0.090714455
189	0x3e100c4f	0.14067195
190	0xbe057424	-0.13032585
191	0x3d046ab5	0.032328326
192	0x3e688a05	0.227089
193	0x3e040bdf	0.12895153
194	0xbe6c5871	-0.23080613
195	0xbe654e50	-0.22393155
196	0x3e4d0703	0.20022206
197	0x3dac5cd7	0.08416145
198	0x3e0d825d	0.13819261
199	0xbe3f2da7	-0.18669759
200	0xbe19795a	-0.14987698
201	0xbdb3c39d	-0.08777545
202	0xbde9ca35	-0.11415521
203	0xbe0cecda	-0.13762227
204	0xbc9ee8f0	-0.019398183
205	0x3ea108ec	0.3145212
206	0x3d77c374	0.060489133
207	0x3d9802cd	0.07422409
208	0xbd45c73d	-0.04828571
209	0x3dc3562c	0.0953792
210	0xbc240cc1	-0.010012806
211	0xbe7b66d0	-0.24550939
212	0xbccf334b	-0.025293013
213	0xba5bf86f	-0.00083912065
214	0x3d9a3cbe	0.07531117
215	0xbb62bb56	-0.0034596524
216	0xbcc2feb0	-0.023803085
217	0xbe87841b	-0.26467976
218	0xbe6fe945	-0.23428829
219	0xbe3d9db6	-0.18517193
220	0xbc1cf620	-0.009580165
221	0xbe4098a0	-0.18808222
222	0xbe35e161	-0.17761756
223	0xbdf94852	-0.12171997
224	0xbd1f3c1f	-0.038875695
225	0x3e3a680f	0.18203758
226	0x3e69a4ee	0.22816822
227	0x3d13c4d0	0.036076367
228	0x3e47609c	0.19470447
229	0x3e029bf6	0.12754807
230	0xbe387800	-0.18014526
231	0xbdeb2407	-0.11481481
232	0x3d0fd618	0.035116285
233	0xbd3c7aa2	-0.04601539
234	0xbe329970	-0.17441344
235	0xbdf93ca6	-0.12169771
236	0xbe0b5d6e	-0.1360986
237	0xbe66ddbb	-0.22545521
238	0xbdb5e8ae	-0.08882271
239	0x3d3b7060	0.045761466
240	0x3dce6ce9	0.10079367
241	0x3e21bf7b	0.157957
242	0xbdf747ce	-0.120742425
243	0xbce783c0	-0.028261065
244	0x3e67d250	0.22638822
245	0xbe84d1e0	-0.25941372
246	0xbe8514d3	-0.2599245
247	0x3e5f5ea5	0.21813448
248	0xbc7a6b60	-0.015284389
249	0x3daa7e84	0.08324912
250	0xbe00e556	-0.12587485
251	0xbe824f3f	-0.25451085
252	0x3de65cd8	0.11248177
253	0xbd9aa7c7	-0.07551532
254	0xbe53bce1	-0.2067752
255	0x3e33678e	0.17519972

logvar.bias f4 [16]
0	0xbe129db8	-0.14317977
1	0xbe10b451	-0.14131285
2	0x3ca569b9	0.020192014
3	0x3da9455a	0.08265181
4	0xbddf0aa3	-0.10890701
5	0xbcfc1f30	-0.03077659
6	0xbd4658fa	-0.0484247
7	0xbe035348	-0.12824738
8	0xbdba66b6	-0.09101622
9	0x3b0f5394	0.0021869885
10	0xbd146708	-0.03623107
11	0xbe2847de	-0.16433665
12	0xbe0b05c7	-0.13576423
13	0x3e16f346	0.14741239
14	0x3df6dc0a	0.12053688
15	0x3e10f40e	0.141556
