phase_2/2_layer_vae.pt (torch, 31394 bytes, 52 tensors)

encoder_nn1.0.weight f4 [18]
00000000: 88f3 8e40 6720 8a40 880b 3dc0 b382 2e3f
00000010: 0857 9240 804d 16bf adcb 1e40 da56 5dbe
00000020: 9f47 8f3f b13f 5e3e a41a 7940 719d 4e40
00000030: fbdb 8fc0 c0aa b640 65e7 ee40 bcd9 8440
00000040: 27a0 853f 7025 d83f
4.467228 4.3164554 -2.9538288 0.6816818 4.573124 -0.58712006 2.4811814 -0.21615162
1.1193732 0.21703984 3.892251 3.2283595 -4.495603 5.7083435 7.4657464 4.151579
1.04395 1.6886425

encoder_nn1.0.bias f4 [18]
00000000: 8151 64b9 825d b5b7 a1f5 1bba 5e5e 3038
00000010: 0f9f 0439 3d7d 7839 e84b a7b8 0fbd dfb8
00000020: 70c5 0937 411b 8436 31a0 85b9 bbaf 51b9
00000030: 415e afba 178a 103a d719 c139 d090 be39
00000040: a941 8039 b06f 73b9
-0.00021774137 -2.1620424e-05 -0.00059493823 4.2049556e-05 0.00012647755 0.00023697778 -7.977319e-05 -0.000106686835
8.211806e-06 3.9370793e-06 -0.0002548709 -0.00019997258 -0.001337953 0.0005513741 0.0003683108 0.00036347518
0.00024462983 -0.00023215893

encoder_nn1.0.running_mean f4 [18]
00000000: 6657 863c f484 d9bd cbc4 83bd 8c80 a7bd
00000010: 6e26 1ebe 1c92 233d 32e7 d63c dbce 523d
00000020: d8c8 9cbc 671a d23d 4c2f a3be b63d 17be
00000030: 7302 82be 040f 14be 5182 71be cc40 de3e
00000040: cb2f c93e ac15 44bf
0.016399097 -0.10621062 -0.0643402 -0.08178815 -0.15444347 0.039934263 0.02623329 0.051466804
-0.019138739 0.10258942 -0.31872022 -0.14769635 -0.25392494 -0.14458853 -0.23584868 0.4340881
0.39294276 -0.7659557

encoder_nn1.0.running_var f4 [18]
00000000: 8cb8 b03f ea8c c53f 392b b93f 2c6c b43f
00000010: d553 b13f 7350 1f3f 549f 133f 22ee 1e3f
00000020: 6962 293f 4ff4 1a3f e3c6 cf3f 4f69 c03f
00000030: 0f03 c43f 14b9 d63f 19c4 e13f 2574 4840
00000040: 0eee 833e c8e9 0f40
1.3806319 1.5433629 1.4466316 1.4095511 1.3853709 0.6223213 0.5766499 0.6208211
0.66165787 0.60529035 1.623257 1.5032138 1.5313433 1.6775231 1.7637969 3.132089
0.2576756 2.2486439

encoder_nn1.1.weight f4 [16, 18]
00000000: 0e56 c53e 191e b03f fbc5 1c3f 9843 2ec0
00000010: 72c2 26c0 63eb 873f 406b 0d40 3709 a33f
00000020: 4bf7 30bf 83e2 f63e 6f5e 1d3f 8856 90bf
00000030: 643c 06c0 3a98 3c40 99aa 90bd 0b29 7f40
00000040: 1b5e c8bf a07c 82c0 016a 2140 c3a7 aa40
00000050: dd03 a640 5018 013f 99cd e93e ebba 2abf
00000060: c998 cf40 31d7 473e 2f73 e4be cd34 19bf
00000070: 590f 70bf c57c aec0 d522 0dc0 cc51 463f
00000080: 0d1d 1f3f 07df 6abf 776f 19bf 9b81 08be
00000090: 352f 9a3f 2b81 3cbf 369f 6cbf 4c1d 9ebe
000000a0: 6b9d 9dbf e673 833f 3436 45bf 2c6d b9be
000000b0: 07db babe 8a60 adbd bb5e 2abf b04e a43f
000000c0: 81ac d13f 3ff5 873f b608 cd3e 634f 213f
000000d0: f1b8 b9be 56ba 50bf a20d 443f b02b a1bf
000000e0: 64ce b0be c564 3640 2b8d 5840 f8c3 7c3e
000000f0: 979c a03c ded3 8a3f 22bb c13e ef19 7a3f
00000100: 6679 a2be 357a d63e 5c7a a5bf bee8 b5bf
00000110: ea04 92c0 9475 e4c0 49a1 8e3e a43c db40
00000120: 20e2 9440 0907 b0bf 2934 d13e 845f fb3e
00000130: e29a b83e ef04 5b40 f314 31c0 068c c63f
00000140: 7768 2240 e52b 8f3f 0987 aac0 9de5 0740
00000150: 6e49 a9c0 e804 93bf 7e19 5bbf 2e5f 9cbe
00000160: c01d 86bf 0a7c 713f d761 0ac0 e778 c93f
00000170: f53d 7a40 86c1 a23f 1557 86c0 b4a7 5dbe
00000180: 387f 373e 1a94 e5bf 2a6d 6dbf 40ac b7bc
00000190: b1b1 e33f c4f8 22be e769 80c0 b76f 05c0
000001a0: c148 a840 7d84 3c40 4bc0 7ebf e282 06c0
000001b0: b132 fb3f 973e 1ebf e208 7b3f 9e94 a43f
000001c0: 2f48 3ac0 8379 88bf 0aa7 853f e51f abbd
000001d0: 91a8 c3bf ef7f 8dbe 195e 02bf bc23 8e3f
000001e0: 9551 f4bf 7b82 59c0 c4fd 8040 eac0 bf3f
000001f0: 8006 ccbd 0a7d 8ebf fc56 11bf ae59 ad3d
00000200: 8f7c eabc 2e51 773f 7ce6 163f df07 87be
00000210: c230 02bf 917d 0f3e 1660 a13e ea25 1e3f
00000220: a9c2 263f c024 1d3e 8a28 bebe 7134 61bf
00000230: c405 27bf c08d adbd 9950 b23e eac3 803e
00000240: 19c2 543f 4cf3 00bf 7263 e63e 5901 f73e
00000250: 28e9 9bbe 359a c5be 535c 24bf ceb0 1f3f
00000260: 24e2 ed3e 170f 993e 7fae 2ebf b562 e73e
00000270: 35f4 02bf 25b5 e73e e72b 0d3f 8be6 3a3f
00000280: 0019 f5bd 1652 b6be b0da 18c0 826b a23f
00000290: 6406 85bf 7513 7bbf 9885 bf3e 344f d33d
000002a0: 0c0c f53e 7283 7dbe 5e20 f93e 33bd 54bf
000002b0: bc99 f23f 3c1c 1abf 0806 933f 91d0 873f
000002c0: 9cb3 9a3f 0ceb a63e f7f8 013f 167c a4be
000002d0: 2bb8 91c0 4948 2f40 7422 8540 65fd 0740
000002e0: f0f8 a5c0 c4ff a53f f88f f2bf 625d 20bf
000002f0: 4dbd d23f 81a8 20be c875 4040 7b4c 90bf
00000300: 7f13 d7c0 3df4 a1c0 7874 c840 f4ab b740
00000310: cb39 2240 3698 62c0 7fad 5ebe 92d2 f540
00000320: 17a4 8e3f a39b d03f 532f 92bf d93b 093f
00000330: 36de dc3f 4cbe e8bf f6ca 4cbf 45ee 443f
00000340: d5da 333f 0aa9 78c0 9bc4 1abf ecdf e1bf
00000350: 63ac 6d3f cdd4 5cc0 70f0 b03f 9254 0240
00000360: 4b5f c240 729e c2c0 bb5d 5840 60e5 28bf
00000370: 1448 1e3f 295b 663f 57fb 2ec0 a12e 233e
00000380: 7ad9 b63f ef04 9fbe 43e8 8ac0 b32a ac40
00000390: a665 8ec0 5928 d7bf e427 0e3f a880 3f40
000003a0: 80f0 bbbf bf63 9cbf b19f 33c0 077d 0440
000003b0: 4461 df3f 9a4f da3f fd57 0ec0 3b67 62be
000003c0: 9e12 8b3f a0d6 85be 310a 94bf 396e 08be
000003d0: c6c2 1540 12b5 2dbf 7c78 2cc0 61a7 13c0
000003e0: e7fc 9d40 f565 2240 2bc2 a8be f56d b4bf
000003f0: e298 fcbf bdbf ee3f 5d66 043f d100 693e
0.38542217 1.3759185 0.61239594 -2.7228756 -2.605618 1.0618709 2.209671 1.2737187
-0.6912734 0.4821969 0.6147222 -1.1276407 -2.097436 2.9467912 -0.07063789 3.98688
-1.5653719 -4.077713 2.522095 5.3329787 5.1879716 0.5042772 0.4566467 -0.66691464
6.4874005 0.19515683 -0.44619128 -0.5984619 -0.9377342 -5.4527307 -2.205251 0.7746856
0.621537 -0.9174656 -0.59935707 -0.1333069 1.2045656 -0.73634595 -0.92430437 -0.30881727
-1.2313665 1.0269744 -0.7703583 -0.36216104 -0.3649523 -0.08465679 -0.665508 1.2836514
1.6380769 1.0621718 0.40045708 0.6301176 -0.36273912 -0.81534326 0.765833 -1.2591457
-0.34532464 2.8499005 3.3836162 0.24684131 0.019605918 1.0845907 0.37838084 0.9769582
-0.31733245 0.41890112 -1.2927966 -1.4211652 -4.5631 -7.139353 0.27857426 6.8511524
4.652603 -1.3752147 0.40860108 0.4909631 0.36055666 3.4221761 -2.7669036 1.5511482
2.537626 1.118527 -5.328984 2.1233895 -5.2902136 -1.1485872 -0.85585773 -0.30541366
-1.0477829 0.94329894 -2.1622217 1.5740021 3.9100316 1.2715309 -4.19813 -0.21646005
0.17919624 -1.7935822 -0.92744696 -0.022421002 1.7788602 -0.15915209 -4.0129275 -2.0849435
5.258881 2.9455864 -0.99512166 -2.1017385 1.9624845 -0.61814255 0.9806043 1.2857854
-2.9106557 -1.0662082 1.0441601 -0.08355693 -1.5285817 -0.27636668 -0.5092483 1.1104655
-1.9087397 -3.398589 4.0309772 1.4980748 -0.09962177 -1.1131909 -0.5677335 0.08464371
-0.028623847 0.96608245 0.5894544 -0.26373193 -0.5085565 0.14012744 0.3151862 0.617766
0.6514078 0.1534605 -0.37140304 -0.87970644 -0.6524317 -0.08474302 0.34827116 0.2514947
0.8310867 -0.5037124 0.44997746 0.48243216 -0.30451322 -0.38594213 -0.64203376 0.6237916
0.46461594 0.29894325 -0.6823501 0.45192495 -0.5115388 0.4525539 0.55145115 0.7300803
-0.11967659 -0.35609502 -2.3883476 1.2689059 -1.0392575 -0.98076564 0.3740661 0.10317841
0.47860754 -0.24757174 0.48657507 -0.83101195 1.8953166 -0.6019933 1.1486216 1.0610524
1.2086062 0.32601202 0.50770515 -0.3212592 -4.5537314 2.738787 4.1604557 2.124841
-5.186638 1.2968678 -1.8950186 -0.6264249 1.646402 -0.15689279 3.0071888 -1.127334
-6.72113 -5.0610642 6.2642174 5.7397404 2.5347774 -3.5405402 -0.21745871 7.6819544
1.1143826 1.6297497 -1.1420692 0.53606945 1.7255313 -1.8183074 -0.79997194 0.7692607
0.70255786 -3.8853173 -0.60456246 -1.764646 0.92841166 -3.4504883 1.3823376 2.0364118
6.0741324 -6.0818415 3.3807209 -0.65975 0.6182873 0.8998285 -2.7340906 0.15935756
1.4285119 -0.31058452 -4.3408523 5.3802123 -4.4499083 -1.6809188 0.5552962 2.9922276
-1.468277 -1.221794 -2.8066218 2.070131 1.7451558 1.7055542 -2.2241204 -0.22109692
1.0865057 -0.26140308 -1.156561 -0.13323297 2.340013 -0.67854416 -2.6948538 -2.307091
4.937122 2.537473 -0.32960638 -1.4096056 -1.9734156 1.8652264 0.51718694 0.22754218

encoder_nn1.1.bias f4 [16]
00000000: 391f 5a35 9454 0c35 b1ca 3ba3 cbc7 8036
00000010: 61d0 9436 c63e 4334 aa09 b69c 5df1 b310
00000020: e811 f794 92e5 6a20 a3be 0438 009c ea36
00000030: c293 d9b6 c7f9 6aa0 6730 351f d101 f333
8.1256763e-07 5.227714e-07 -1.0180212e-17 3.8379562e-06 4.435002e-06 1.8183627e-07 -1.2046248e-21 7.097493e-29
-2.4947689e-26 1.989653e-19 3.1648797e-05 6.9919042e-06 -6.4843052e-06 -1.9903215e-19 3.8368278e-20 1.13159e-07

encoder_nn1.2.weight f4 [16]
00000000: 5313 a53f 1663 4c40 12ac bf3d cb3e 3740
00000010: 5ec4 8b40 bbed 1240 567e f4be df88 79bd
00000020: 1708 2f3d 4227 cb3e 177f 2a41 f7d8 2940
00000030: 3060 aa40 76be 3d3f 1e85 343e 533c e83f
1.2896522 3.1935477 0.09358992 2.8632076 4.3677206 2.29576 -0.47752637 -0.060921546
0.042732324 0.3967839 10.656028 2.6538675 5.3242416 0.74118745 0.17628905 1.814341

encoder_nn1.2.bias f4 [16]
00000000: 6a4b 5a3f 0ef5 0bc0 6023 29bf e966 c740
00000010: 2f6b 20c0 b875 55c0 7e37 46c0 73d9 dfbe
00000020: d249 37bf 1d05 e0bf 4ff6 683f bfeb b13f
00000030: c077 293f e236 5cc0 d8d0 76c0 86d5 4dc0
0.8527132 -2.186832 -0.660696 6.2313123 -2.506542 -3.33531 -3.097137 -0.43720588
-0.71597016 -1.750156 0.9100084 1.3900069 0.6619835 -3.4408498 -3.8564968 -3.2161574

encoder_nn1.2.running_mean f4 [16]
00000000: 893f b43b 92b7 ec38 3b3d 42ba 2088 8cbb
00000010: ea97 cb3b 4654 9d3b 6b29 9d3a 1d22 59b9
00000020: a9a6 803a 2ca3 173a 081e 233c 9c2e a8ba
00000030: 5d02 683b 06f6 843b e03a 023b 3322 933b
0.005500738 0.000112875496 -0.0007409637 -0.0042886883 0.006213178 0.004801306 0.0011990493 -0.00020707441
0.0009815294 0.00057845074 0.0099558905 -0.0012831273 0.00354018 0.0040576486 0.0019871518 0.004490161

encoder_nn1.2.running_var f4 [16]
00000000: 7a92 d944 6b4a 5145 afee c343 d2ae af45
00000010: 6a43 3345 2609 aa45 f8c9 2745 705a f142
00000020: 3bd1 0643 e2d1 1844 5051 3146 2057 4045
00000030: 2e9d ae45 30a8 7845 5fef 3945 800f 9045
1740.5774 3348.6511 391.86472 5621.8525 2868.2134 5441.1436 2684.623 120.676636
134.8173 611.2794 11348.328 3077.4453 5587.6475 3978.5117 2974.9607 4609.9375

encoder_nn1.4.weight f4 [8, 16]
00000000: b549 7cc0 6f7f 15c0 884f 7c3e 9dd8 1240
00000010: bdf9 3cbf efd2 b53f 6720 0440 fef4 2cbd
00000020: e664 df3e 8c52 8abf d79f 8c3f 697b 1840
00000030: 12f0 90bd fa7e db3f 5b9d 3040 0aa0 ef3f
00000040: adb6 03bf a297 0840 f3b4 2fbf b0cf 3840
00000050: 6087 56c0 a96d a6be fd41 01bf ae67 fb3e
00000060: 2761 0fbf 42a2 c83d 8834 2bbf c03d 6d40
00000070: 0d54 e9c0 39ea c9bd 8aae 573f f667 7d3f
00000080: 60e2 b3be 8b18 153f 2738 433f 7e51 eb3f
00000090: 814f 653f 2abe 22c0 d261 6abb 3d35 f3be
000000a0: 5f5b 60be 9ceb 363f d3e6 19c1 960e b2bf
000000b0: 05a3 e2be 6f98 5bbf e6e5 c23e 9feb c6bf
000000c0: f97f 883d 1196 1ec0 f745 6fbf 3b4d 01bf
000000d0: 36a2 ce3d d5e7 d73f 72dc 883f 5d56 363f
000000e0: c122 8abe 7fda e9bf 2962 6b40 ebb0 943f
000000f0: 54bf 9ebf d625 be3f b3b9 a13f f76e 873f
00000100: 5d18 49be b501 2fbd 105a edbe f512 3e40
00000110: f8c9 47bf 035a f9bf dfd3 3abe f5e3 f7be
00000120: 3aef e03d 6f11 bd3e 01f6 05c1 63b7 14bf
00000130: c8d4 dfbe 1aa2 29bf 0c6c f1be eecb 12c0
00000140: 433b 6ebf 9674 86bf 45d7 e33c 97e7 0c3e
00000150: 4199 bc40 f86c b7bf 478c b2bf 14f8 f9be
00000160: 2fa3 cebe 1689 55bf 124c 35c0 b475 90bf
00000170: dc3a ea3e ba39 3abf 5f26 81bf 1122 25bf
00000180: 2a90 5040 531a 0740 7021 9e3f 5235 91c0
00000190: e530 48c0 bfaa f0be 277f 23bf 779b 0bbf
000001a0: 8a3b e1be 60d8 853f 6c9a 20bf efc5 003f
000001b0: 17d9 4fc0 474d f33e b062 bbbd 550b 323e
000001c0: d51a 043f 4a97 bbbf 6129 d93e a3fd 953d
000001d0: d4da a7bd e113 f13f b464 823f acdc 2f3f
000001e0: c60c a73e 0ef6 4ebf 2613 2a40 5631 0840
000001f0: bae1 8ebf 1fbd a03e 8680 c13f dd52 0640
-3.9419987 -2.335903 0.24639714 2.294471 -0.7381857 1.4204997 2.0644777 -0.04222583
0.43631667 -1.0806441 1.0986279 2.3825324 -0.0707704 1.7148125 2.7596042 1.8720715
-0.51450616 2.134255 -0.6863548 2.8876762 -3.3520126 -0.3250554 -0.50491315 0.4910254
-0.5600762 0.09796573 -0.6687703 3.706894 -7.29151 -0.098591276 0.842507 0.98986757
-0.35133648 0.58240575 0.76257557 1.8384244 0.8957444 -2.5428567 -0.0035763872 -0.47501555
-0.21909855 0.7145326 -9.618854 -1.3910701 -0.44265 -0.8577947 0.38066024 -1.5540656
0.06665034 -2.4779093 -0.9346613 -0.5050847 0.10089533 1.6867625 1.0692275 0.7122553
-0.2697964 -1.8269805 3.6778662 1.1616491 -1.2402139 1.4855297 1.2634796 1.0580739
-0.196382 -0.042726237 -0.46357775 2.969907 -0.78042555 -1.9480594 -0.18244885 -0.48416105
0.10983129 0.36927363 -8.37256 -0.58092326 -0.43717027 -0.6626297 -0.47152746 -2.2936969
-0.93059176 -1.0504329 0.02781261 0.1376022 5.8937078 -1.433013 -1.3949059 -0.4882208
-0.40358874 -0.834123 -2.832768 -1.128592 0.4574803 -0.72744334 -1.0089835 -0.64505106
3.258799 2.1109817 1.2353954 -4.537759 -3.1279843 -0.4700527 -0.63865894 -0.54534096
-0.43990737 1.0456657 -0.6273563 0.5030202 -3.247625 0.47519895 -0.091496825 0.17387135
0.5160344 -1.4655545 0.42414382 0.07323768 -0.08196035 1.8834192 1.0186982 0.68696094
0.32626933 -0.808442 2.6574187 2.1280112 -1.1162636 0.31394288 1.5117347 2.0988076

encoder_nn1.4.bias f4 [8]
00000000: ff8f 0c35 c3b7 f1b5 a84e 4eb5 6b04 92b4
00000010: 1742 8b38 ccdd a036 e713 2c37 638e 9e32
5.2363606e-07 -1.8009381e-06 -7.685544e-07 -2.7197834e-07 6.640347e-05 4.794192e-06 1.0256633e-05 1.845837e-08

encoder_nn1.5.weight f4 [8]
00000000: 5358 1440 fecc b43e eaf4 8840 e465 8240
00000010: dbdf 8540 8c8e 7d40 7d6f ee3e 9262 2040
2.317891 0.35312647 4.2798967 4.074938 4.183576 3.9618254 0.46569434 2.5060163

encoder_nn1.5.bias f4 [8]
00000000: 2554 8abf 31e2 b53f 5831 32c0 9335 a7be
00000010: 967a 2ac0 1aab d2bf 6940 0140 ed5c bdbd
-1.0806929 1.4209653 -2.7842617 -0.3265806 -2.663732 -1.6458466 2.0195563 -0.0924624

encoder_nn1.5.running_mean f4 [8]
00000000: 12ec 8f41 2d4f 4c3f 50b7 1bc2 4eae 4b41
00000010: 70d3 cdc1 9efe 2dc1 28d6 12c2 c0bc 6541
17.990269 0.7980831 -38.929016 12.730055 -25.728241 -10.874662 -36.709137 14.358582

encoder_nn1.5.running_var f4 [8]
00000000: 5740 d642 3cf3 9444 ce2f 7545 d01b 1444
00000010: 6130 4545 81ff 0e44 4a5d e743 9f62 ac43
107.12566 1191.6011 3922.9878 592.4346 3155.0237 571.99225 462.72882 344.77048

encoder_nn2.0.weight f4 [33]
00000000: 237f 0c3e 0892 b33f cb8c b93f be88 2440
00000010: 66b4 933f 3977 c13f 5cc2 a03f 94f8 3340
00000020: 1710 e73f 7b1f a63f 8f61 b23f a26e 2040
00000030: 8717 563f b4be a23f dff6 b33f a088 0a40
00000040: 73f9 c73e 1c8e a93f a6db ec3f f69a 0040
00000050: b53c 0440 9caa 1240 43e5 823f 00ba 933f
00000060: 88ec bc3f a9c5 913f a51e cb40 f7a7 9d40
00000070: 07b2 323f c476 a940 7a7e fe3f 364e 8540
00000080: ef2f 7ebd
0.13720374 1.402894 1.4496092 2.570846 1.1539428 1.5114509 1.2559314 2.812047
1.8051785 1.2978357 1.3936023 2.5067525 0.8362965 1.2714448 1.4059714 2.164589
0.39057502 1.3246493 1.8504531 2.009458 2.0662053 2.2916632 1.0226215 1.1541138
1.4759684 1.1388446 6.347491 4.9267535 0.698029 5.2957478 1.9882348 4.165797
-0.06205743

encoder_nn2.0.bias f4 [33]
00000000: b621 9eb6 7671 2eb7 2544 db37 29f0 9737
00000010: d507 c1b8 1509 bcb8 aab3 0938 0093 9238
00000020: fb30 98b7 ba32 2d38 caea 25b7 56a9 b137
00000030: 8a2a 2037 ddbf 5736 01d9 0138 50c1 bc36
00000040: 2625 00b8 1ece 3734 7afc 05b8 7659 45b7
00000050: 6798 11b8 b30f 6bb8 70e6 fb36 04c9 0ab6
00000060: 0f50 8ab7 e6a2 78b7 c0a1 b236 6868 8f37
00000070: 5c94 51b7 3b80 cb38 ad8c 0db8 37c3 88b7
00000080: 97c9 e2b7
-4.7126914e-06 -1.0397625e-05 2.6138567e-05 1.8112436e-05 -9.204416e-05 -8.96623e-05 3.283067e-05 6.9892034e-05
-1.814262e-05 4.1293657e-05 -9.8894325e-06 2.1178897e-05 9.546648e-06 3.2149176e-06 3.0958097e-05 5.625341e-06
-3.0552175e-05 1.7118188e-07 -3.1944808e-05 -1.1762944e-05 -3.471263e-05 -5.6042987e-05 7.5072094e-06 -2.068061e-06
-1.6488162e-05 -1.481988e-05 5.3236436e-06 1.7095546e-05 -1.2491913e-05 9.703679e-05 -3.3748034e-05 -1.6303367e-05
-2.7035172e-05

encoder_nn2.0.running_mean f4 [33]
00000000: 5ea4 943d 587e 973d 1a90 a43b 626f bfbb
00000010: 687d 513d 1e27 c2bb 5122 f63d 55df 0c3e
00000020: e7e7 423d 8ee5 bd3c af38 003d 661b 8b3d
00000030: 6d37 103d ddc1 7cbb 1578 603d 0167 bf3d
00000040: 3fda c63c 1242 b9ba 3a9f d13d 78c3 ad3d
00000050: 0898 a63d 37b1 283b 4ec6 9b3d 088b 55bb
00000060: e02c 2a3d a8c3 093f 32e2 b53f 6708 b93e
00000070: 2a2b ce3f da4a ca3e 12b7 463f 6b40 0140
00000080: 6038 833f
0.07257913 0.07397145 0.005022061 -0.0058421353 0.051144987 -0.0059250733 0.12018264 0.1375707
0.04758444 0.02318075 0.031304058 0.06792335 0.03520911 -0.00385677 0.05480202 0.09345818
0.02427399 -0.001413407 0.10235448 0.08484548 0.081344664 0.0025740394 0.07606183 -0.003258409
0.041546702 0.5381417 1.4209654 0.36139223 1.6106923 0.39510232 0.77623093 2.0195568
1.0251579

encoder_nn2.0.running_var f4 [33]
00000000: 8df5 683e 0162 0f3f 9852 2c3f a806 c23f
00000010: f5ef 513e c288 083f ea67 3c3f 5dce bc3f
00000020: c531 493e 9e34 0a3f 26b7 343f 6ec8 b23f
00000030: 2974 523e 4111 053f 857a 2a3f 3a11 bf3f
00000040: 4af2 3e3e 2328 fa3e 0e01 2c3f 1688 b53f
00000050: 545f 3c3f 9864 223f 54e7 1e3f 202e 293f
00000060: 0b64 203f b011 a63f 36cd 013e 6118 693e
00000070: e9e8 e940 c91c bf3e c7ce 3140 2cbf 613e
00000080: 50b6 3240
0.2274992 0.5600892 0.6731353 1.5158281 0.20501693 0.53333676 0.7359606 1.4750477
0.19647892 0.5398654 0.7059196 1.3967416 0.20552124 0.5197945 0.665932 1.4927132
0.18647113 0.48858747 0.6718911 1.4182155 0.7358296 0.63434744 0.6207173 0.66086006
0.62652653 1.2974148 0.12675938 0.22763206 7.3096814 0.3732665 2.7782457 0.22045583
2.7923775

encoder_nn2.1.weight f4 [16, 33]
00000000: d0ac f03e 8151 aa3e c376 acbe e14d efbe
00000010: 052f a03e 750d e23e 7044 10bf 7dd7 4dbe
00000020: a68c 9abe 6e3d 45bf 89d8 533f 6867 833f
00000030: c430 0cbf 860c 94bd 9b3b 58bc a673 1f3d
00000040: 18c7 f6be a742 89bc 85de 14be 168f 353e
00000050: f187 0c3f 0d3c 56be c27e 58bf 29e8 5e3e
00000060: df59 3f3e a623 c4be 19d7 6bbe 2203 efbe
00000070: 5bd3 cabe 42b0 86bc 1b04 32be defa cc3e
00000080: 22fb ce3d 20fd e6bd 19c8 debe 1d27 2c3f
00000090: 299d 333f 222a b93b 4961 243f 7db1 55be
000000a0: 58dd b5be 12da f9bc 9879 12bf 8062 1c3e
000000b0: 757c c13d 5c89 343c da91 913e cf41 c33e
000000c0: 59d2 ec3e c4df a7bf 891f b2bf e4d3 6e3f
000000d0: 3cc2 783f de5a e0be 2562 283e 249b 0abe
000000e0: 1bff 58be 7907 59bf 0797 a03f bcc2 a3bf
000000f0: 5f28 64bf bc12 0240 b108 0bc0 5d85 eebc
00000100: 0b1e 823f 68ee b23f 7db3 533c 9aff 8dbf
00000110: 04f8 0b40 3e0b 1a40 ea4f ebbe 3e19 32bf
00000120: 5f42 a53f dcb9 cb3f 54c1 91bf cdf7 c3bf
00000130: 5e71 f33f 0c53 5440 7a74 35bf 8596 803f
00000140: 8ca1 2bbf 0a95 02c0 5378 223f 99a9 2f40
00000150: 709b 47c0 4bf1 c3c0 8b4f 98bf d89b 71bf
00000160: ac21 c6bf dbca 1b3f 8784 6640 35e9 a2bf
00000170: 58a5 f03e 4431 d23f 4b4f c4bf 6acb 4f40
00000180: 5172 80bf 27fd dcbf dc5d 58be b61e 333e
00000190: cb4e c6bd 03ed 65bd 8d13 f0bd e919 10bf
000001a0: 4958 23bf 6b14 833e bd1a 1bbe 8558 023f
000001b0: c92b 223f f87e 67bf dc15 50bf 056f 8e3d
000001c0: 6f40 1fbf 673b 563f 10c5 5f3f 2993 f13c
000001d0: 08d3 86bf b459 ce3f 505e 823f c446 843c
000001e0: fc32 32be a8f0 293f 8d9c 33bf 4e45 b4bf
000001f0: 3853 b1bd a050 9dbf 8a39 a2bf 241a 103f
00000200: c8f1 d7be 8da8 c0be 5cac 823e f5bf cd3e
00000210: 0d5d 993e e155 bf3c d27f 99bf 61f0 76bf
00000220: 10f1 803e 358a 573e 07aa a23d 75c0 833e
00000230: fd3a 1a3f c535 73bf 4c63 cd3e 87ad ac3e
00000240: 4188 8f3f ea03 3b40 473c 79c0 06e7 9cc0
00000250: 7661 91bd daaf 8c3e 576c e03e b75a 423f
00000260: 21df 8b3f 7152 f1bd 3333 bfbe bab4 2340
00000270: b35c 25bd 2c24 893f 3f81 2040 8ac7 04c0
00000280: 07a4 a1bc 8c15 00c0 8f9c 08c0 3430 aec0
00000290: 585f a73e aec2 debe e892 d2be b3f8 e0bd
000002a0: 3e57 2c3e 3f9b 10bf 4d0a 93be 2afd b23e
000002b0: f507 963e f2f5 4fbf 4b4c 07bf 098a 313f
000002c0: 6416 433f 4407 31bf 63e0 a83e b9f2 e2bc
000002d0: fd37 2fbd 6d2f 393f 7933 4d3f 45d1 37bf
000002e0: ebbb f8be aa0c 103d cdcf d23e cd1c 13bf
000002f0: aebb 82bd 17ec 1b3f ead8 5e3d 1ebf 25be
00000300: 8c16 98be 5c82 a1bd 5487 c23e 21ba 173f
00000310: c0e2 b0be 02f4 e2bd d3ab 48bf f9e1 0bc0
00000320: fe94 f83f e9dc 0d40 0a80 b33f 12e8 bc3f
00000330: f35b 14bf 3441 9cbf 7521 15bf 4bbf 423d
00000340: 4cfd 51bf 44af 83bf f640 bdbe ece7 a3bf
00000350: c099 3a3f 1ead b33f 1c10 c23e 2f5f 0abf
00000360: 7dc4 373f ed90 9a3f 177a 02c0 5d1f 6e3f
00000370: 4416 1c3f b030 6bbf 8d2e bdbe 1de6 363f
00000380: bbda c23f 252e 95be b64a 453d ec06 0cbf
00000390: 6cae 27bf f550 5e40 25d3 733f 34ec 163f
000003a0: fd04 153f cb30 01bf 7d26 f2be bb2f 81be
000003b0: 1510 08bf 6ebb 1dbf ec7f e8bd 193b 4ebf
000003c0: 527f fb3e f31c 1fbf 7c07 b9be a3b1 27bf
000003d0: a98c e0be 4827 113f 51d7 263f 6796 12bf
000003e0: 26e0 9c3e 4e77 693f 5335 29be 564d d63e
000003f0: 8186 c5be c913 083f 89fc edbe b0e4 d7be
0.47006845 0.33265308 -0.33684358 -0.46739104 0.31285873 0.44150892 -0.5635443 -0.20101734
-0.3018543 -0.7704686 0.8275228 1.0265932 -0.5476191 -0.07228951 -0.013197805 0.03892865
-0.4819877 -0.016755415 -0.1453801 0.17730364 0.5489493 -0.20921345 -0.8456842 0.2176825
0.18686627 -0.38308448 -0.23031272 -0.46682078 -0.39614376 -0.016441468 -0.17384379 0.40035146
0.101064935 -0.112787485 -0.43512037 0.6724718 0.7016168 0.0056507746 0.64210945 -0.20868488
-0.35520434 -0.030499492 -0.5721679 0.1527195 0.094475664 0.011019077 0.28431588 0.38136145
0.46254233 -1.3115163 -1.3915874 0.9329207 0.9717138 -0.43819326 0.16443689 -0.13535744
-0.21191065 -0.8477703 1.254609 -1.2793803 -0.891241 2.0323935 -2.1724055 -0.029116327
1.0165418 1.3979006 0.012921211 -1.1093628 2.1870127 2.4069362 -0.45959407 -0.69569767
1.291088 1.5916095 -1.1387124 -1.5309998 1.9018972 3.3175688 -0.70880854 1.0045935
-0.67043376 -2.0403466 0.6346485 2.7447264 -3.1188622 -6.1232047 -1.1899275 -0.94378424
-1.5479026 0.6085641 3.6018388 -1.2727419 0.47001147 1.6421285 -1.5336698 3.2467904
-1.0034887 -1.7264756 -0.21129555 0.17492184 -0.09682997 -0.056134235 -0.11722479 -0.56289536
-0.6380659 0.25601515 -0.15146919 0.5091632 0.6334806 -0.90428114 -0.81283355 0.06954769
-0.6220769 0.8368439 0.8741007 0.029489117 -1.0533152 1.6121125 1.0185032 0.016147025
-0.17402261 0.6638284 -0.7016075 -1.408365 -0.08658451 -1.229023 -1.267381 0.5628989
-0.42176652 -0.37628594 0.25522125 0.40185514 0.29953805 0.02335638 -1.1992133 -0.9646054
0.25183916 0.21048816 0.079425864 0.2573277 0.6024626 -0.9500392 0.4011482 0.3372614
1.1213456 2.922114 -3.894304 -4.903201 -0.07098667 0.27477914 0.43832657 0.7591967
1.0927469 -0.117833026 -0.3734375 2.5579057 -0.040371608 1.0714164 2.5078886 -2.074679
-0.019731535 -2.001315 -2.1345556 -5.443384 0.3268993 -0.43507904 -0.41127706 -0.109849356
0.16830155 -0.56486887 -0.28718796 0.34958774 0.29302946 -0.8123466 -0.5285079 0.6935125
0.7620604 -0.6915171 0.32983693 -0.02770363 -0.042778004 0.7233799 0.80156666 -0.71803695
-0.4858087 0.035168327 0.41174164 -0.5746582 -0.06383453 0.6090712 0.054406084 -0.16186187
-0.29704702 -0.07886192 0.37993872 0.59268385 -0.34547997 -0.11081697 -0.7838718 -2.1856673
1.9420469 2.2166083 1.402345 1.4758322 -0.57952803 -1.2207398 -0.58254176 0.047545712
-0.82027125 -1.0287862 -0.36963624 -1.2805152 0.72890854 1.4037206 0.37902915 -0.5405149
0.7178419 1.2075478 -2.0387018 0.93016607 0.60971475 -0.91871166 -0.36949578 0.71444875
1.5223001 -0.29136768 0.048166953 -0.5469806 -0.6550052 3.4736912 0.95244056 0.5895417
0.58210737 -0.5046508 -0.4729499 -0.25231728 -0.5314954 -0.6161412 -0.11352524 -0.80558926
0.49120575 -0.6215355 -0.36138523 -0.6550543 -0.43857315 0.56700563 0.65172297 -0.57260746
0.30639762 0.9119767 -0.16524248 0.41855878 -0.3857918 0.5315519 -0.46481732 -0.42166662

encoder_nn2.1.bias f4 [16]
00000000: d309 af13 3659 c2b3 51c2 0bb4 0ed2 e58f
00000010: 31f3 f4b6 aa47 cf90 5f7f 8eb4 5bb1 d913
00000020: 68a8 22b5 24ef 9092 9043 8235 22c1 d2b6
00000030: ce04 d7b7 1224 9b36 c559 9236 590b 1335
4.41859e-27 -9.050056e-08 -1.3016076e-07 -2.2662054e-29 -7.300078e-06 -8.175752e-29 -2.6542236e-07 5.4953387e-27
-6.0594766e-07 -9.14663e-28 9.705418e-07 -6.2809713e-06 -2.5632235e-05 4.623559e-06 4.3615896e-06 5.477828e-07

encoder_nn2.2.weight f4 [16]
00000000: b8e0 383d 40a4 d93d f373 a83f 3785 e63d
00000010: 8be8 b53f 0eba c53d 72e7 143f a5b5 2d3e
00000020: e776 cb3f 3ab1 003e d7df 9e3e 80c1 b640
00000030: e891 be40 26f1 4f3f 4fcb 5e40 770b d63f
0.045136184 0.10627031 1.3160385 0.112558775 1.4211591 0.09654628 0.5816566 0.16963823
1.5895661 0.12567607 0.3103015 5.7111206 5.955311 0.8122734 3.481159 1.6722249

encoder_nn2.2.bias f4 [16]
00000000: c77f 28bf 6eee f93f 8ba7 cb3f 7180 3bbf
00000010: ac67 0a40 8274 62bf a79e 5940 65d7 68bf
00000020: af2d bb3f c35e 37bf ac8b f53f 2cfb eebe
00000030: f2b3 a0bf ca75 6040 6c50 363f 1187 bc3e
-0.6581997 1.9525888 1.5910505 -0.7324286 2.1625776 -0.88459027 3.4003084 -0.90953666
1.4623317 -0.7162897 1.918325 -0.46676004 -1.2554915 3.5071893 0.71216464 0.36821797

encoder_nn2.2.running_mean f4 [16]
00000000: afa0 19b9 b62d c5b9 a20e 7f3a 0165 1d38
00000010: e672 c9b9 6429 d238 5b8e c2b9 631b b938
00000020: b663 61ba d4e3 03b8 2a57 66b8 1635 e3b9
00000030: 5322 5bba 251f 5e38 cd36 513a bf46 35ba
-0.00014651076 -0.00037608825 0.00097296585 3.7525784e-05 -0.00038423314 0.0001002129 -0.00037108627 8.8265886e-05
-0.0008597927 -3.1445015e-05 -5.491745e-05 -0.00043336366 -0.0008359302 5.295793e-05 0.0007980883 -0.0006915144

encoder_nn2.2.running_var f4 [16]
00000000: 2232 8442 1c01 3a44 a640 3745 0b27 bb43
00000010: 9d5a 9344 d661 8542 56ab e144 37e5 0542
00000020: cedb e644 c70e c242 a1fc 9b43 4695 c245
00000030: 8496 d545 78be b844 6b97 9845 9c38 3345
66.097916 744.01733 2932.0405 374.30502 1178.8317 66.691086 1805.3542 33.473843
1846.8689 97.02886 311.97366 6226.659 6834.8145 1477.9521 4882.9272 2867.538

encoder_nn2.4.weight f4 [8, 16]
00000000: 91d0 063e 5aab 8cbe 6eee 033e fa52 23be
00000010: 7319 1e3f 7c81 adbe 2c50 c7bf 8792 943e
00000020: 0a22 3740 60c0 88bd 1441 0d3f f2ee 823e
00000030: 0a4c 0ac1 84ca 9a3f 78c8 44bd 324a 1bc0
00000040: 075c d63c 27ea fdbd 442b f33c c362 02be
00000050: b031 a43e c019 bdbd 1869 043f 17bd 993e
00000060: 543d 3fbe 375a 10bf 2a54 efbe 4141 d340
00000070: e7a0 8f3e 44f5 adbe 0191 afbf 129a 0abf
00000080: fffb 15bf e2b5 a2be a133 0f3f 25e1 1e3f
00000090: a759 403f 7669 243f 13de 9fbe 5164 04be
000000a0: e6b4 0dbf 7138 61bf 8b47 25bf c446 6fbf
000000b0: d301 c0be dde4 413e 516c a33e 5d90 2cbe
000000c0: 61ea 1f3f 762f 2fbf 29d3 3640 8096 2bbf
000000d0: 5cf3 8d3f d9c5 bfbe 0280 81bf e080 e6be
000000e0: 435c 0fbf 674b b53e 34e0 5abe f3c3 adc0
000000f0: 7ace 9abd 3c62 95bf 8390 78be ef32 b4be
00000100: f843 753f 0414 c1be e902 02bf 4a79 15bc
00000110: 5fcd d13f 3ad8 1bbf 8766 253e c5df 54bf
00000120: b3ba 5f40 b526 6e3e d484 573f dec2 2bbe
00000130: 9a6e 9740 2c31 43be a88f cf3d 66dd a6bf
00000140: 7bfa 993e aa53 90bd f704 9c3c 83a0 163f
00000150: ba34 6b3e 9cc1 a53e 465c adbf e21d f4be
00000160: c387 c13f 048a f83c ee72 073f ea0c 303f
00000170: 0e92 6fc0 0bb2 2040 d7dd 40be f36c e9bf
00000180: 5b9b 24be 3a00 483d f77f d3bf 18d0 8bbf
00000190: 272c 8340 e9de 51bf 02ba 2dbf 44ac 26bf
000001a0: 0c8f 1fbf b36f 103d 1346 39bf 21fa 38be
000001b0: 820e bbbe f29f 00c0 df3e ddc0 0f1f ee3d
000001c0: 8378 113f 0b33 d2bf ed91 2abe 519e 37bf
000001d0: fd16 d73e e9bd e43e a7e5 d3bf 465f 11bf
000001e0: de5c 75bf c2ce 4f3f 4f13 553f 776f b3be
000001f0: c60a 6abf 8be0 f03e 3db6 883e 7c32 023f
0.131655 -0.2747448 0.12883922 -0.15949622 0.6175758 -0.3388785 -1.5571342 0.29018041
2.8614526 -0.066773176 0.55177426 0.25572926 -8.643564 1.2093053 -0.048042744 -2.4264035
0.026166929 -0.12398177 0.029683717 -0.12732987 0.3206916 -0.09233427 0.5172286 0.30027077
-0.18675739 -0.56387657 -0.467439 6.6017156 0.28052446 -0.33976185 -1.3716127 -0.5414134
-0.5858764 -0.3177939 0.55938154 0.62062293 0.751368 0.6422342 -0.31224117 -0.12928893
-0.55354154 -0.8797675 -0.6456229 -0.93467355 -0.37501392 0.1893496 0.31918576 -0.16851945
0.6246701 -0.68431795 2.8566382 -0.6702652 1.1089892 -0.37455633 -1.011719 -0.450202
-0.56000155 0.3540909 -0.21374589 -5.4301696 -0.075589135 -1.1670604 -0.24273877 -0.3519511
0.9580684 -0.37710583 -0.5078569 -0.009123156 1.6390799 -0.6087681 0.16152392 -0.83153945
3.4957702 0.23256953 0.84187055 -0.16773555 4.732251 -0.19061726 0.10134822 -1.3036315
0.30073914 -0.07047208 0.019045336 0.5883867 0.22969332 0.32374275 -1.3543785 -0.4767905
1.5119556 0.030339248 0.52909744 0.68769705 -3.7432895 2.5108669 -0.18834625 -1.8236374
-0.16074888 0.04882834 -1.6523427 -1.092288 4.0991397 -0.8198076 -0.6786195 -0.65106606
-0.6232765 0.035262775 -0.7237255 -0.18064167 -0.36534506 -2.0097623 -6.9139247 0.11627018
0.5682451 -1.6421827 -0.16657229 -0.71725947 0.42009726 0.4467614 -1.6554459 -0.56786
-0.9584483 0.8117486 0.8323259 -0.35045978 -0.9142269 0.47046313 0.26701537 0.50858283

encoder_nn2.4.bias f4 [8]
00000000: 4d8f 8e38 7ddb 4c37 f7a9 1e14 a607 9a38
00000010: 7987 c4b7 a1e3 0525 9224 75b8 2ad7 3913
6.7977795e-05 1.2210451e-05 8.010481e-27 7.344717e-05 -2.3428105e-05 1.1613035e-16 -5.844661e-05 2.3456367e-27

encoder_nn2.5.weight f4 [8]
00000000: 3b65 b03f 41a3 c53e 7951 99be 7c33 553f
00000010: a314 c83e bd24 e83c dbde 713f 2aa9 d03d
1.3780893 0.38601115 -0.2994497 0.83281684 0.39078245 0.02833783 0.94480675 0.101885155

encoder_nn2.5.bias f4 [8]
00000000: c9a8 cebe d55c 2e3f 8392 9ebf ae56 cebe
00000010: ca1e c63e ba61 47be ccc9 4abe 2685 ebbe
-0.40363148 0.681104 -1.2388462 -0.40300506 0.38695365 -0.19470873 -0.19803542 -0.46000022

encoder_nn2.5.running_mean f4 [8]
00000000: 2799 42c1 3c43 3c41 cf4b 3ac0 29bd 7cc1
00000010: 5945 8441 7815 143f a081 96c1 7211 00c1
-12.162391 11.766415 -2.910877 -15.796182 16.533861 0.5784526 -18.813293 -8.004259

encoder_nn2.5.running_var f4 [8]
00000000: a33f 3444 095e ae43 259e 3941 2442 3443
00000010: 0965 7543 fcda 3f43 de29 e943 64c2 5041
720.9943 348.73465 11.6011095 180.25836 245.39467 191.85541 466.3271 13.047459

fc_mu.weight f4 [8, 8]
00000000: f966 5c3a e53a f93c e097 0bbf f1ae 3a3d
00000010: 8b13 e2bb f395 853e 0e39 edbb ead9 9ebd
00000020: 6152 a03b f306 9eba 56a3 ccba baf6 0cbc
00000030: d8b1 273c ad3e e83c 3ed0 983a 6913 31be
00000040: 9ac7 ea3f 1945 003f 1f2f 1cbf bfa5 6bbf
00000050: 94fc 54bf b351 afbd 32af cc3e 4f1b 9a3e
00000060: f9c7 80bc dbbb 0abe a3de 4a3d c472 e6bd
00000070: c05c cdbc ccd7 30be 0f80 ba3d 20f3 c6be
00000080: 9bee 16bc 697a edbc f59a bcbd 70af 01bd
00000090: 7537 efbb d7ea 27be 27af c73c 9b1a 7cbe
000000a0: b28a a1bc 6a05 fdbb e98a 72bf 9cec d3ba
000000b0: 98d7 2cbc 674f 89be a417 29bc 9a3c 4f3d
000000c0: 1ed4 443d 244f 2540 3a72 ca3c 2bc4 f23e
000000d0: d6c5 16be 4be9 42be 5fde 5dc0 b6c7 173f
000000e0: 70a8 a23f c99b 94bf e065 f73e 6c86 ad3f
000000f0: 3832 01bf 4c29 713c 7b34 0ebf be98 1e3f
0.0008407678 0.03042359 -0.5452862 0.045576993 -0.0068993024 0.26090965 -0.0072394675 -0.077564076
0.004892633 -0.0012056514 -0.0015612643 -0.008603746 0.010235272 0.028350199 0.0011658741 -0.1729256
1.8342164 0.50105435 -0.610094 -0.92049783 -0.83197904 -0.08560505 0.39977413 0.3009896
-0.015720354 -0.13548224 0.04952873 -0.112523586 -0.02506864 -0.1726982 0.091064565 -0.38857365
-0.009212161 -0.028989034 -0.09209243 -0.03166145 -0.007300312 -0.16398178 0.024375511 -0.24619524
-0.019719455 -0.0077215927 -0.9474321 -0.0016168538 -0.010549448 -0.26818392 -0.010320578 0.050594904
0.048053853 2.5829554 0.02471267 0.4741529 -0.14723906 -0.19034307 -3.4666975 0.5928911
1.2707653 -1.1610042 0.48319912 1.3556647 -0.5046725 0.014719319 -0.5554883 0.61951816

fc_mu.bias f4 [8]
00000000: 4119 c9bc d240 53bb 6239 07bf 724c db3d
00000010: 8ddc d33c de16 9c3c 8b63 68bf 7908 f13e
-0.024548175 -0.003223468 -0.52821934 0.1070794 0.025862003 0.019053873 -0.9077689 0.47076777

fc_logvar.weight f4 [8, 8]
00000000: a1ce bd3a d8e4 a93b 4f26 313f f2a6 ab3b
00000010: d254 613b ccf2 e93d 5698 033a e8fd 95be
00000020: 207e 6cba b1d6 463b 2447 e03d afcf fd39
00000030: c844 95b9 f252 d53d 1c93 93bb 5db6 9d3e
00000040: e77b 323d 25fa 6ebe 1862 3bbd 355e 5fbe
00000050: ec6f 2c3c b3df 1dbf c2eb 3c3d 3eb5 bb3c
00000060: 7dd2 9e3b aec6 373b a1b6 88be 8edc 313c
00000070: 5763 ac3b ab5e 8f3e 4db0 9f3a 3762 cbbc
00000080: 7e3a 2b3b 626d c63b d9a6 753f 48f0 0d3c
00000090: 1459 c63a 44d5 59be d37d b0ba 39cf 523e
000000a0: 090c de3b 148d e53c 4532 443f 1c30 ff3c
000000b0: 6ff3 303b 7576 b93e 65d3 1abc 8533 843d
000000c0: 7d63 903d f811 a2bf 1bb4 153f ee17 893f
000000d0: 818f 3bbd 4c1f d7bd 2d81 87bf 21d0 00bd
000000e0: 5820 7e36 3b02 a3be 5c9f 893e d092 1f3e
000000f0: 1edd 9a3c 940b 09bf 998d 843e 14a2 c7bc
0.0014481136 0.005184751 0.6919908 0.0052384073 0.0034382832 0.11423263 0.0005019953 -0.29295278
-0.00090214796 0.0030340368 0.10951069 0.00048410657 -0.0002847074 0.10416211 -0.004503621 0.30803195
0.043575194 -0.2333761 -0.045747846 -0.21813281 0.010524731 -0.6166946 0.046123274 0.022913571
0.0048468695 0.0028042006 -0.26701835 0.010855807 0.0052608657 0.28001913 0.0012183279 -0.024827106
0.0026127393 0.00605552 0.95957714 0.008663245 0.0015132749 -0.2127276 -0.0013465233 0.20586862
0.006776337 0.028021373 0.76639205 0.03115087 0.0027000566 0.36223188 -0.009449814 0.06455139
0.07050226 -1.2661734 0.58477944 1.0710428 -0.045791153 -0.10504016 -1.0586296 -0.031448487
3.7867776e-06 -0.3183764 0.26879394 0.15583348 0.018904265 -0.5353329 0.2588928 -0.024369277

fc_logvar.bias f4 [8]
00000000: f429 f5bb ef93 e7ba b9ac 6ac0 10f3 32bc
00000010: d1a0 08bc d842 fabc edf3 dcbe 3ed4 6cc0
-0.007481808 -0.0017667989 -3.6667922 -0.010922208 -0.008339123 -0.030549452 -0.4315485 -3.7004542

decoder_nn3.0.weight f4 [16, 8]
00000000: 14f4 5dbc 5d0a c63e f11f 61bf cf6a 9cbf
00000010: 822c 87ba 1b0d 483e 34b7 99be 8c46 9b3d
00000020: 89c2 8bbf 01c4 0e3f 8e93 613f 57ee 403e
00000030: 78df 3cbe 3c4e 973e 8366 913c 9969 6e3f
00000040: 56d6 0bbd d9d5 1b39 819d 5440 75f8 febc
00000050: 3ccc 173d 099c 0d3c 5a86 0fc0 cee7 9bc0
00000060: 8900 8c3e 6bba b3bc 76f4 a3bf 7f51 06bc
00000070: 9713 a23e 9a1d 35be 0e7d a6be 2400 30bf
00000080: fea4 323b 0cb2 9abb 5f3f bfc0 74d4 3abd
00000090: d06e 1b3b 5d6e 053d 5148 ee3d b2e4 70c0
000000a0: fd2e 08bf 4bd8 a4bd 28d0 53be ef33 debe
000000b0: 271a 36be e1f6 773f 4bfe 4c3f bebe 783f
000000c0: ee2c 28be 8547 42be 25b7 8c3e 2f6e 753f
000000d0: a8ae 97be a36b 4dbe 2caf f3be ae5f 88bf
000000e0: ad02 bd3c 96db 383b 4878 af40 4295 0a3d
000000f0: 31ee 593b ddc6 14bd e5bc 5e3d 549d 5740
00000100: 365e 1bbd f48b 083d d6df 9340 ac49 77bb
00000110: 30c2 403d a8dc 5bbc e586 463f 4670 cbc0
00000120: 36f0 0b3f a874 953e 411f b03e 9a77 afbe
00000130: c22f 66bf 0a5e f73e b266 8bbf 3b0a 06bf
00000140: cdfc 243f b7c4 ea3e 44bd c9bf 2a84 eb3e
00000150: 5748 383f 471c 6c3e e348 1e3f 999d db3e
00000160: a98b 003d 42ea 6fbb c046 50c0 36fe aabc
00000170: 23f2 7cbc acb0 3a3d 44b7 b13b 2afb 9e40
00000180: be90 813d a2a8 fcbd d348 ca3e fc0f 5abf
00000190: e9cf 663e 5ce3 8fbe 3d0b 4abf 0253 f5be
000001a0: c510 c2bd 1b7a 363f 5e76 2d3f 83f2 583f
000001b0: d9fc 043d 580d a2bf 6479 bebc 446d e7be
000001c0: 24de 1b3f 56e6 033f c1fe 68bf cbad 3bbf
000001d0: 7d79 70be e67a 4abf 1e8b 493f 7e8d e63c
000001e0: c816 e5be ee26 20bf 7f3d 05bf 537a 3bbf
000001f0: c734 043f f3ed d7be 3541 4abf 9e7d 7b3f
-0.013546962 0.38679782 -0.87939364 -1.2220095 -0.0010312947 0.1953625 -0.30022585 0.07581815
-1.0918742 0.5576783 0.88115776 0.1884092 -0.18444622 0.29551876 0.017749077 0.9312988
-0.034139954 0.00014861616 3.3221133 -0.031124333 0.037060007 0.008643159 -2.2425752 -4.8720465
0.27344158 -0.021939477 -1.2808979 -0.008198141 0.3165557 -0.17687073 -0.32517284 -0.68750215
0.0027258988 -0.004720932 -5.9764857 -0.045612767 0.0023717172 0.032575954 0.11634887 -3.7639585
-0.531967 -0.08049067 -0.20684874 -0.43398997 -0.17783414 0.9686108 0.8007552 0.9716605
-0.1642339 -0.18972595 0.27483478 0.9587125 -0.2962544 -0.20060591 -0.47594583 -1.0654199
0.023072565 0.0028207055 5.483433 0.03383375 0.0033253545 -0.036322463 0.054379363 3.3689775
-0.037931643 0.033336595 4.6210737 -0.003773312 0.04706019 -0.013419308 0.7754958 -6.3574553
0.5466341 0.29190564 0.34398845 -0.34270936 -0.8991662 0.48313934 -1.0890715 -0.5235936
0.64448243 0.45853207 -1.5760884 0.4599927 0.7198538 0.23057662 0.61829966 0.42893675
0.03138319 -0.0036608134 -3.2543182 -0.02087317 -0.015438589 0.045578644 0.0054234583 4.9681597
0.063264355 -0.12336852 0.39508685 -0.8518064 0.22540249 -0.2810315 -0.789234 -0.47914892
-0.09475855 0.7128007 0.6775874 0.84745044 0.032467697 -1.2660322 -0.023251243 -0.4520055
0.60885835 0.5152334 -0.91013724 -0.7331206 -0.23483844 -0.7909378 0.787279 0.02814364
-0.44743943 -0.625594 -0.5204696 -0.73233527 0.5164303 -0.42173728 -0.7900575 0.9823855

decoder_nn3.0.bias f4 [16]
00000000: 5f89 1115 793a 7693 899c 3a38 c79f a312
00000010: 008b 9037 61d2 c48f 0062 5694 6fa6 0db9
00000020: ef40 a6b7 5957 1714 d273 c990 97a6 e037
00000030: 7a35 cd1c 53d0 1795 9c43 ff93 d304 1814
2.9390883e-26 -3.1078394e-27 4.449164e-05 1.0326134e-27 1.7230865e-05 -1.9408127e-29 -1.0823566e-26 -0.00013508809
-1.981898e-05 7.640778e-27 -7.945897e-29 2.6780455e-05 1.3579585e-21 -3.0658546e-26 -6.4437718e-27 7.67499e-27

decoder_nn3.1.weight f4 [16]
00000000: 9c97 d73d d7a3 b03a 6beb 7a3f 9d69 82be
00000010: e940 3c3f bad2 883d 64f1 0d3e caf1 623f
00000020: 6cea 4a3f da5b a63b 1025 0bbe 269f 343f
00000030: a796 c5bd 847e ef3d b020 01be c51e 86be
0.10526964 0.0013476562 0.9801547 -0.25471202 0.73536545 0.06680818 0.13861614 0.8865019
0.7926395 0.0050768675 -0.13588357 0.7055534 -0.09647875 0.11694053 -0.12610126 -0.2619535

decoder_nn3.1.bias f4 [16]
00000000: 7749 37bf c9c0 63bf 6705 c53b be91 91bf
00000010: b44d 6e3e 62de 30bf 114c 47bf dd8c 143e
00000020: 7dff 023e 7fea 77bf fd01 21bf 507d e33d
00000030: 46fa b0bf a7f8 5abf 4351 d9bf 57e6 a1bf
-0.71596473 -0.8896604 0.006012607 -1.1372602 0.23271829 -0.6908933 -0.77850443 0.1450686
0.12792774 -0.9684219 -0.6289366 0.11107886 -1.3826377 -0.85535663 -1.6977924 -1.2648419

decoder_nn3.1.running_mean f4 [16]
00000000: 6679 cf3c ec3d 0bbd 3ea8 b4bd b00b 43bc
00000010: 290c 883d 32e7 f53c 0b6d fdbc a186 55bd
00000020: 0c94 713d b3e2 8f3c f2ab 90bb 3e49 a0bc
00000030: 1725 93bc 67d3 57bc d097 d13d 7d77 65bd
0.025326442 -0.0339946 -0.08821152 -0.011904642 0.06642944 0.03001747 -0.030935785 -0.052130345
0.05897908 0.017564153 -0.0044150287 -0.019566175 -0.017962022 -0.013172961 0.10234034 -0.056022156

decoder_nn3.1.running_var f4 [16]
00000000: e812 1d40 c115 4a40 3167 3342 6972 1c40
00000010: df48 4942 bd32 4e40 64f8 3240 8017 2742
00000020: dc0c 8242 d512 4340 a9ef 9b40 0e60 1542
00000030: 4142 fd3f 6c8c 5140 e511 6e40 96f8 5a40
2.454279 3.1575778 44.850773 2.444483 50.321163 3.2218468 2.7964106 41.77295
65.025116 3.0480244 4.8730054 37.343803 1.9785844 3.2741957 3.7198422 3.4214225

decoder_nn3.3.weight f4 [25, 16]
00000000: 4f26 58be 2015 443e 0eaa 713e db33 cb3e
00000010: b2eb 613e da3f 723e c2fb 9ebe 6baa 173f
00000020: 9fd8 13bf 4102 883d 9098 5ebd b5f4 13be
00000030: 10bb ce3e 0c99 c13e d650 adbd d98a 1c3f
00000040: bfea 37bf ef15 d23e 4f14 ef3e 2118 44bf
00000050: ed2a e33e 6289 fc3d 70bb 01bf ccc9 8f3f
00000060: 2bdb a0bf 3b14 4ebf ed67 b33c 8062 68be
00000070: 4b34 143e 2fdb b7be 0e23 06bf e488 d53e
00000080: 240a 46be c097 c1be 096d e4be e85e 153e
00000090: b6e0 b5be 825e 1c3f bb19 4abe fa0b 83bf
000000a0: 7aee a43f 951d d8be 6ce0 043e 7d86 333e
000000b0: 085b a8be 1d71 a0be 202a e63d b46f e4bd
000000c0: 0bff 1a3e f737 37be d508 59bf 661c 943e
000000d0: 0f85 2cbf f6da cd3e 0168 07be 3c7b e5bf
000000e0: 528b 1340 193c 55be dc1d b93e 408d f53e
000000f0: 5288 90be 62b0 b5be 272f c43e d7c1 e23e
00000100: 29a7 ac3d 3738 a0be c550 503d 0c1a 60be
00000110: d92a 1d3f 8546 3fbd ec72 9e3e bea3 153e
00000120: 65a3 05be e9fd 13bf ce33 01be bf1e 41be
00000130: 79e2 00bf e5fb 83be 6880 66be 188d 85be
00000140: db61 be3e 513e 553e 2861 893d eecf 0d3e
00000150: 7977 a63f 1f41 75bd 276e d63d 6bda 913e
00000160: 5016 83be 1346 8bbe ddef 5dbd e31f f5be
00000170: fc97 bf3c b40e 78be 697a 80bd 0237 203e
00000180: 7342 2abe 138a 293e a9ac d7bc 9640 debe
00000190: 6bda adbf db33 573e c9fc f63e e0c3 a0be
000001a0: 8105 4f3e d024 683e d02a 47bd a8b5 153f
000001b0: 7956 1f3e 2abf 413e 5971 263f b076 2f3e
000001c0: 6ca5 77bf 40ac 893d 0e96 cfbc 8108 abbe
000001d0: 984e ffbf 6bcc a13e 6c68 d8bc 2dbc a4be
000001e0: 9810 aa3e 9939 fa3d d6ab b5be c62d 6c3f
000001f0: a689 32bf d553 0d3e 568b a03d 4b05 2cbe
00000200: 1856 71bd e9d5 3cbe 8b46 a13e 3148 b5be
00000210: f21f a3be 75db 183e 1fb9 54be f715 97be
00000220: 6075 1fbf 4cbf c7bc 4a7b 853e f77e babd
00000230: 553c 6dbe 2517 7c3e 82bc 253e cf9e f4be
00000240: 62bc f2be eb15 ba3e 0296 0d3f 2375 5c3d
00000250: a4cb 46bf 9d9e 7c3e 879d a83d db9c 76bf
00000260: aa1b abbf 7c80 b63d 199b 2d3d a865 7abe
00000270: 180b 3e3e 1e0d f53e 4426 f13e 9776 4d3e
00000280: 2755 033e 8e6f d0be d137 0fbf e6bd e8bd
00000290: 9706 7f3f de90 97be 1d3c 793e cb3b 9f3f
000002a0: 22ff aa3f 3d67 53be 443c fabe 023e d23d
000002b0: 0936 463d 0734 9abe ab49 7fbe c707 97be
000002c0: 33ef b73e 612b 2b3b 782e 79bf 722d a93d
000002d0: 16f1 bc3f 5176 0d3e a63c 6dbe f87e ef3f
000002e0: 1ce1 0940 d666 a4bd b0dd 80be 64e3 873e
000002f0: b965 ab3d 3f1d 11bf d19f 40bf fac2 a13e
00000300: 092b 33be cee6 44be 0bf6 203f 5636 cc3d
00000310: 0d13 6e3d 7db9 e6bd 4d08 383e b636 973d
00000320: 4a47 84bd 5f0c bcbd cd69 de3d 38dd 9c3e
00000330: de6b 2cbe 3df1 a63e 0433 6cbd d1c4 97be
00000340: 29f5 1e3c 0e06 c0be 1af2 823f 0308 7cbe
00000350: bcad 7fbc 8d35 c3be d801 1b3e 4962 e03c
00000360: 54e8 bc3e 0550 953e e564 05be e785 543f
00000370: d687 eebe 25e6 66be 9dd6 afbe 6888 36bf
00000380: f490 93bd 871d 533e cce3 71bf a9e1 293f
00000390: c388 a6bb 1685 063f 6d4a aabe ba85 85bd
000003a0: 9683 01bf dffa 20bf 305c 613e 1688 81bf
000003b0: ced6 03be 12ff e4be 09e2 a83e 80cf a63e
000003c0: 98e6 793e 20d7 a43e e02a bebf e209 f23e
000003d0: 8af5 8fbd 5c22 0f3f 9194 40bf a6f6 65be
000003e0: 40d3 6cbf 66a8 c9be b09a cc3e 6130 c5bf
000003f0: 848a af3d d2fb 8e3e 2f4b debd b875 9f3e
-0.21108364 0.19148684 0.23600027 0.39688 0.22062567 0.2365717 -0.3105145 0.5924441
-0.5775241 0.06641055 -0.054344714 -0.14448817 0.40377092 0.37812078 -0.08462684 0.61149365
-0.7184257 0.4103236 0.46695182 -0.7659932 0.44368687 0.12330891 -0.5067663 1.1233459
-1.2566885 -0.8049962 0.021900142 -0.22693825 0.14473073 -0.3590941 -0.5239724 0.41706002
-0.19339806 -0.3781109 -0.44614437 0.14586985 -0.35523003 0.6108171 -0.19736378 -1.023803
1.2885277 -0.4221007 0.12976235 0.17531772 -0.3288195 -0.313363 0.112385035 -0.11154118
0.15136354 -0.17892443 -0.847791 0.28927916 -0.6739053 0.40206116 -0.13223268 -1.7928233
2.3053784 -0.20823707 0.36155593 0.47959328 -0.28229004 -0.35486132 0.38317224 0.44288513
0.08430321 -0.3129289 0.050858278 -0.21884936 0.61393505 -0.046698112 0.30947053 0.14613244
-0.13050611 -0.5780931 -0.12617418 -0.18859385 -0.5034557 -0.25778118 -0.2250992 -0.26084208
0.37184033 0.20824553 0.06707984 0.1384885 1.300521 -0.059876557 0.10470229 0.28486952
-0.2560296 -0.272019 -0.05418383 -0.4787589 0.023387901 -0.24224359 -0.06273348 0.15645984
-0.16626911 0.16556577 -0.026327448 -0.4340865 -1.3582281 0.21015875 0.48239735 -0.3139944
0.20216943 0.22670293 -0.048624814 0.5848031 0.1556033 0.1892058 0.65016705 0.1713512
-0.9673679 0.06722307 -0.025340106 -0.33404925 -1.994586 0.3160127 -0.02641698 -0.32174817
0.33215785 0.12218017 -0.35482663 0.92257345 -0.69741285 0.1380151 0.07839076 -0.16798894
-0.058919996 -0.18440975 0.31499133 -0.3540664 -0.3186031 0.14927466 -0.20773743 -0.29508945
-0.62288475 -0.02438321 0.26070625 -0.09106248 -0.23167546 0.24618204 0.16185191 -0.4777741
-0.4740935 0.36344847 0.5530702 0.053822648 -0.7765448 0.24669881 0.08233171 -0.9633309
-1.3367817 0.08911225 0.04238424 -0.24452841 0.1855892 0.4786157 0.47099507 0.2006477
0.12825452 -0.4071011 -0.55944544 -0.11364345 0.9961943 -0.29602712 0.24339338 1.2440122
1.335911 -0.20644851 -0.48874104 0.10265733 0.048391376 -0.3011782 -0.24930446 -0.2949812
0.35924682 0.0026118385 -0.9733653 0.08260621 1.4761074 0.13814665 -0.23167667 1.8710623
2.1543646 -0.08027427 -0.25169134 0.26540673 0.083690114 -0.5668525 -0.7524386 0.31594068
-0.17496885 -0.1922867 0.6287543 0.09971301 0.058123637 -0.11265848 0.17971916 0.07383482
-0.0645891 -0.09182047 0.10860024 0.30637527 -0.16838023 0.32605925 -0.05766584 -0.29642347
0.009702005 -0.3750462 1.0230134 -0.24612431 -0.015605386 -0.38126794 0.15137422 0.027390616
0.36896002 0.29162613 -0.1302677 0.8301682 -0.4658801 -0.2254873 -0.34343424 -0.7130189
-0.07205382 0.20616733 -0.94488215 0.66359955 -0.0050822212 0.52546823 -0.33259907 -0.06519647
-0.5059141 -0.628828 0.22007823 -1.0119655 -0.1287491 -0.44725853 0.3298495 0.32580185
0.24404371 0.32195377 -1.4856834 0.47273165 -0.07029255 0.55911803 -0.75226694 -0.2245737
-0.9250984 -0.3938629 0.39961767 -1.5405389 0.08571342 0.279265 -0.10854184 0.311445

decoder_nn3.3.bias f4 [25]
00000000: e6c4 c4bd 8f94 5ebe 3a31 613e 8858 a73e
00000010: 4fb6 41be 94c9 e5be dfa1 113f 1cdf 2f3f
00000020: 3583 fa3e ea60 9c3f 7f40 aabf a6e0 00c0
00000030: 50e6 b9be a811 60bf 9cfc 853f 0738 e13f
00000040: fe64 93be 33ed 52bf 1f28 913f 9b6b bf3f
00000050: 0fe7 c8bd fb73 e4be ae96 b73f a583 75bf
00000060: f747 56bf
-0.09607868 -0.21736358 0.21991435 0.3268473 -0.18917201 -0.44880354 0.5688762 0.6869981
0.48928228 1.2217076 -1.3300933 -2.0137115 -0.36308527 -0.8752694 1.0467715 1.7595223
-0.28787988 -0.8239319 1.1340369 1.4954714 -0.09809696 -0.44619736 1.4342859 -0.95904
-0.8370356

decoder_nn4.0.weight f4 [16, 33]
00000000: c0f6 a83d 0dda 1c3d 602e 8e40 fb7d aebd
00000010: 5f37 223d 8322 a73c 729f fe3d b896 0e40
00000020: 73ea 193f b761 bc3f e288 eabe c47f c9bf
00000030: a5e0 aabf ff91 cfbf 8bfb 5140 c69d 8640
00000040: 40ad f2be 8bdf 91bf 80f7 373f ddb6 e93e
00000050: 9f9b a1bf d3b9 b3bd 0d71 743e 1892 593e
00000060: 1f00 53bf 864b 4ebf f7e3 91ba fdac ae3f
00000070: c978 753f 9b20 b3bf 3c65 d8bf fc4d b13e
00000080: 5334 c3bf ea20 233d 844a ccbe 142e 06bf
00000090: 3140 99be 8a3f 413e ae29 553e 5593 84bf
000000a0: 288e 9fbe ce19 263f 9fd2 093f 84df 0a3f
000000b0: 4dd9 3ebf 2611 14be 509f 833e 4b57 1cbf
000000c0: 3be9 48bf 4169 43bf 8976 1fbf 7270 673f
000000d0: b821 0f3f c3fb 54bf d5da 1cbf daa1 8fbe
000000e0: 5412 503e b504 993d a089 773e 1c2a 61bf
000000f0: be87 dd3d 48c1 08bf 622c 82be 3673 14be
00000100: 16d9 7dbe 4fd2 4abf 90bf 03be 314b fcbe
00000110: ae29 9abf 527f d53e 2084 0ebf 1854 743f
00000120: ee8c dc3e 7d40 6c3f 09f1 ff3e f739 3b3f
00000130: a007 38be b975 14be dd03 13bf 5ede 513f
00000140: cfbe abbc 4827 a33e cc7c d5be f4b4 1dbd
00000150: d056 e33e 64b3 813d ce8d 5fbf 6347 c6be
00000160: d903 70bf a255 34bd 1355 49bf 7af1 29bf
00000170: 68c0 5fbf 7b53 fbbe 813f af3e 0b3a 023e
00000180: efeb 173f d213 873f 786a e5be f506 83be
00000190: 6f2d 03bf 56b3 49bf 654f f1be b239 883d
000001a0: abce 003f 7dc0 50bf 5516 1bbd 9e11 3fbe
000001b0: 733b a73e f460 1f3f 78c5 4abe 1153 14bf
000001c0: 237b 93be ec36 bdbd 1b07 10bf 7827 f93d
000001d0: 236a 0cbf cf31 223f 9f38 693d 7fbc 49bf
000001e0: 00ff b4be 78e5 9fbe d6f8 493e 44c3 6ebf
000001f0: 089d f4be c02f 6cbf e565 25bf e96c 41bf
00000200: 3c19 33bf f4c1 493e de8c a7be 105b a03e
00000210: cc2e b13c 4f45 87bb 6717 1e40 8aba 3dbb
00000220: e53e a3bb 304a 07bd 3504 1540 b03f 9ac0
00000230: b823 0abf 9909 18c0 81fb 1740 4b5e 4240
00000240: 3358 f43d 270f a13d f671 b13e 51fb 033f
00000250: 8485 56bf 447a 32c0 e2f6 2a40 73b0 2c40
00000260: af2a 52be 6d18 b73e f45a dabe 707f 1ebe
00000270: b61d 8bbf 62a0 0cc0 e1ab 3f40 ca70 c040
00000280: 435d babf 5f7a e6bd 1eb3 26c0 225f 04bf
00000290: 3cfc 71c0 42de 4f3e c09d 3d3d 0927 7240
000002a0: 968d b53e 9812 8cbd a963 4ebe 3c25 12c0
000002b0: 7ca2 93c0 20db 81bf a1ae 6dbf 774a da3e
000002c0: da76 debd d934 cfbc 5949 e13e b0f1 f1be
000002d0: 9a84 84bf 2291 aa3e c257 5e3f ca81 8ebc
000002e0: 36ad fc3e e667 ed3f e10e 7140 f4aa d3bf
000002f0: 091b 8ac0 2432 19bf 4bb2 1fbf 8407 e23e
00000300: ee94 843f 9e71 b3be 7c20 b93e b07e 443f
00000310: 4fec 3040 c9b1 67bf fce0 5abf 1465 f03e
00000320: 4613 8a3e 6ce6 573f 15b0 4cbe ae08 0d3f
00000330: db27 11bf 85ca 093e 33d6 54bd 3c08 283f
00000340: 7bc8 cfbd 4e52 71be cf74 4fbf 2a27 ae3d
00000350: 72f6 2c3f f3cf 7f3f 107c 1f3e cdff 0dbf
00000360: 3599 453f 3034 0abe e0f7 e9bc b308 953e
00000370: ce0c 40bf 3dbb 0dbf c738 1cbf 83e4 f33e
00000380: fdac 233e 2156 22bf 034c 633e bcc7 e9bc
00000390: 7022 f63e af7d c73e 7889 e6be 5e95 7f3d
000003a0: a0b3 0dbe d986 193f 3f2e 0f3e f280 0ebf
000003b0: 2e60 a33e 04e1 55bf a9c0 01bf 9b4b 853d
000003c0: 5523 9a3f f9b4 fa3e dc80 833e 7fef 813e
000003d0: 4ef2 553f 4253 5f3f 3de2 ec3e fc56 093e
000003e0: c411 f2be 5c6b 213f 897b 7c3e cbfe 633e
000003f0: 2f58 f23e 2bcf 37bf 83f1 29bf 356d 9fbf
0.08250189 0.038293887 4.443161 -0.085201226 0.039603587 0.020402199 0.124327555 2.2279491
0.60123366 1.471732 -0.45807558 -1.5742116 -1.3349806 -1.621643 3.280978 4.2067595
-0.47397804 -1.1396345 0.7186203 0.45647326 -1.2625617 -0.087756775 0.2387125 0.21247137
-0.8242206 -0.8058399 -0.0011130561 1.3646542 0.9588743 -1.3994325 -1.6905894 0.3462981
-1.5250343 0.03982631 -0.399006 -0.5241406 -0.29931787 0.18871894 0.20816681 -1.0357462
-0.31163144 0.64883125 0.5383701 0.5424731 -0.74550325 -0.14459667 0.25707483 -0.610707
-0.7848088 -0.7633248 -0.62290245 0.9040595 0.55910826 -0.8319666 -0.6127141 -0.2805317
0.20319492 0.07471601 0.24173594 -0.8795488 0.108169064 -0.53419924 -0.25424486 -0.14497074
-0.24789843 -0.79227155 -0.12866044 -0.49276116 -1.204397 0.416987 -0.55670357 0.95440817
0.4307627 0.922859 0.49988583 0.7313532 -0.17971659 -0.14498033 -0.5742777 0.8197993
-0.020965008 0.31865907 -0.41696775 -0.03850265 0.4440217 0.06333044 -0.8732575 -0.3872634
-0.9375587 -0.04402698 -0.7864544 -0.6638409 -0.87402964 -0.49087128 0.34228137 0.12717454
0.5934438 1.0552924 -0.44807792 -0.25591245 -0.512412 -0.7878927 -0.47130886 0.066516295
0.5031535 -0.81543714 -0.037863094 -0.18659064 0.32662544 0.62257314 -0.19801891 -0.5793925
-0.28804883 -0.09238991 -0.5626084 0.12165731 -0.5484945 0.6335725 0.056938764 -0.7880325
-0.353508 -0.31229758 0.1972383 -0.932667 -0.47776055 -0.9226036 -0.64608604 -0.7555681
-0.6996038 0.19702893 -0.3272466 0.31319475 0.02162876 -0.0041281353 2.4701784 -0.0028950297
-0.004981863 -0.033029735 2.3283818 -4.8202744 -0.5396075 -2.3755858 2.3747256 3.0370052
0.11930885 0.07864218 0.34657258 0.51555353 -0.8379748 -2.7887125 2.6713185 2.6982696
-0.20524095 0.35760823 -0.42647517 -0.15478301 -1.0868442 -2.197289 2.9948657 6.013768
-1.4559711 -0.11253809 -2.6046824 -0.5170766 -3.7810202 0.20299628 0.04629302 3.7836325
0.35459584 -0.06839484 -0.20155205 -2.2835226 -4.6135845 -1.0144997 -0.9284459 0.42634937
-0.10862513 -0.025293754 0.44001272 -0.47254705 -1.0352967 0.33313853 0.8685266 -0.017395873
0.493509 1.8547332 3.7665331 -1.6536546 -4.3158 -0.59842134 -0.6238143 0.4414636
1.035795 -0.3504762 0.36157596 0.7675581 2.7644231 -0.90505654 -0.8549955 0.46952116
0.2696783 0.8433597 -0.19989045 0.5509137 -0.5670144 0.13456161 -0.05196209 0.65637565
-0.101456605 -0.23566553 -0.8103761 0.08503564 0.67563546 0.9992668 0.1557467 -0.55468446
0.771869 -0.1349647 -0.028560579 0.291082 -0.7501954 -0.5536383 -0.61024135 0.47635278
0.15983959 -0.6341267 0.22196965 -0.028537624 0.4807315 0.38963076 -0.45026755 0.062398307
-0.13838053 0.59971386 0.13982485 -0.55665505 0.31909317 -0.8354647 -0.506846 0.06508561
1.2042032 0.48966196 0.2568425 0.25378034 0.8357285 0.87236416 0.46266356 0.13412088
-0.4727918 0.6305444 0.246565 0.22265165 0.47332904 -0.7180049 -0.6638414 -1.2455202
